Brains/Basketball.onnx (onnx, 341820 bytes, 7 tensors)

action_model._continuous_distribution.log_sigma f4 [1, 3]
000000 0d bf 00 42 bd dd ff 41 3a 21 c6 41
       32.186573 31.98327 24.766224

action_model._continuous_distribution.mu.bias f4 [3]
000000 40 d0 e9 40 1e ed 1e 40 da fd 5f be
       7.306671 2.4832225 -0.2187418

action_model._continuous_distribution.mu.weight f4 [3, 256]
000000 91 47 1b 3f 2e 8a 41 3e 41 ba d0 3f 51 a6 82 3f
       0.60656077 0.18900368 1.630684 1.0207006
000010 6d d2 a6 3f 66 b4 d2 3f 0a ae a8 be 3c 8b 90 be
       1.3032967 1.6461303 -0.3294528 -0.28231227
000020 35 5e 60 40 02 bf 43 3f 4c 8e ae 40 9a 54 93 3f
       3.50575 0.7646333 5.45487 1.1510193
000030 4d 6f 27 bf 33 b6 4f 40 86 c4 be 40 a7 8d 8f 3f
       -0.65404207 3.2454956 5.9614897 1.1215104
000040 89 13 bd 3f 09 d0 b2 3f ae 8c 42 40 f5 c6 3a bf
       1.4771587 1.3969737 3.0398364 -0.72959834
000050 46 43 95 3f 84 d3 01 40 47 75 ae 40 41 72 0e 41
       1.1661155 2.028535 5.451816 8.902894
000060 04 a4 9d 3e 6f 76 10 41 6e c8 46 3f 9c 9e c8 3f
       0.30789196 9.028914 0.7764958 1.5673404
000070 1c a1 08 41 63 ba 18 bf 32 d8 81 be cc a4 11 40
       8.539333 -0.59659404 -0.25360256 2.2756834
000080 d7 46 bf 3e 37 25 7c bf 9c 3a b3 3c 5b 8f 47 3e
       0.37358734 -0.98494285 0.021878533 0.1948828
000090 ad 72 0f 41 66 49 ec 3e 10 0b ad 3f 59 e0 7c 3f
       8.965497 0.4614975 1.3519001 0.9877983
0000a0 6e 8a 80 3f d5 89 fe 3e d2 eb ba 3f bf 5f 50 40
       1.0042245 0.49714532 1.4603217 3.2558439
0000b0 cd 89 2a 40 07 8e 84 3f 2d aa 4d 40 f3 f3 15 41
       2.6646607 1.0355843 3.2135117 9.372058
0000c0 69 6d a1 40 1a 3a 0d 40 98 0d 14 3c a4 6a 9f be
       5.0446057 2.2066712 0.009036444 -0.31136048
0000d0 8a 7c 07 bf 6e 1a d3 3e 00 5a 5a 3f 2b ce 3f 3e
       -0.52924407 0.41231102 0.8529358 0.1873099
0000e0 46 5b b8 be 99 66 d5 bf 62 0f 88 40 52 5b c3 3d
       -0.36007136 -1.6671935 4.251878 0.09538902
0000f0 cb 1b 4c 3f d6 16 5f 3f d5 83 14 3f e8 0d 09 3f
       0.7972991 0.8714422 0.5801366 0.53536844
000100 ba ac bc 3d 3e 1b 89 3f f3 91 37 40 d9 50 31 bf
       0.092126325 1.0711439 2.868283 -0.6926399
000110 b8 00 a4 3f 8d b4 5a 3f 15 24 f1 3f 71 cf 9d 3f
       1.2812719 0.8543175 1.8839136 1.2328931
000120 b0 e0 d1 3c 79 ae 99 bf ff f1 a7 40 ed da 0d 41
       0.025619835 -1.200637 5.2482905 8.865949
000130 b0 0d bb 40 b8 45 ee 3e 5c 8f 96 3d b5 26 49 3f
       5.845421 0.46537566 0.073515624 0.7857469
000140 36 14 bb 40 32 2d b2 40 54 59 f5 3e 36 a2 ae 40
       5.846217 5.568017 0.47919714 5.457301
000150 db b8 ae 40 cc 10 a9 3e a3 ae a5 3f 39 2c 14 41
       5.4600654 0.33020627 1.294392 9.260797
000160 d6 b4 97 3f 11 b4 66 40 7a 7f 8a 3f 72 97 c8 3f
       1.1852062 3.6047404 1.0820153 1.5671217
000170 46 5d 48 3f e2 0a 2a be 8a 76 23 3f f0 ff 04 40
       0.78267324 -0.16605714 0.6385275 2.0781212
000180 bd 53 0d 40 35 ab 79 3e 73 3d bc 3f b2 38 0f 41
       2.208236 0.24381717 1.4706253 8.951342
000190 f1 6f 0a 41 6a fe 84 3f 90 10 43 3e a8 5a d9 40
       8.652329 1.0390141 0.19049287 6.7923164
0001a0 73 dd 60 3f ef 9d c2 3d 70 8d d2 be e0 b1 7f 40
       0.87837905 0.0950278 -0.41123533 3.9952316
0001b0 79 4b 92 40 0d c4 b1 40 d2 d8 57 40 32 a7 b6 bf
       4.571713 5.555182 3.3726087 -1.4269774
0001c0 7f 6b 93 be 50 e4 0c 41 9d 98 1a 3f 87 12 c0 3f
       -0.2879295 8.80574 0.6038912 1.5005654
0001d0 36 5a b3 3f ab 57 4d bf b2 59 a5 3f 8c d0 62 bd
       1.4011905 -0.80211896 1.2917998 -0.055374667
0001e0 c2 7e 83 3f bd 5e cb 40 00 5a 39 40 59 a1 b7 40
       1.0273058 6.3553147 2.8961182 5.7384458
0001f0 39 88 10 41 8a 34 e2 40 08 6e 59 40 4f 17 aa 40
       9.0332575 7.0689135 3.3973408 5.3153453
000200 3c 60 2b 3f 1f ed 81 40 40 13 a9 3f 46 c1 53 3f
       0.66943717 4.0601954 1.3209 0.82716787
000210 6e 15 30 40 f5 82 39 3f 03 e8 5b 3e 81 80 2b 3b
       2.751308 0.7246545 0.21475224 0.0026169124
000220 8f 36 da 40 a2 a7 6d 40 0d ba d3 3f c2 c7 43 3f
       6.81916 3.7133565 1.6541153 0.7647668
000230 66 9d 3e 40 5c 50 9d 40 eb cb 0e 41 0e ae 22 3f
       2.9783568 4.9160595 8.924785 0.63546836
000240 fa f8 99 40 96 1b 0e c0 74 15 90 40 cf 4a ec 3e
       4.8116426 -2.2204337 4.502619 0.46150824
000250 ec c3 23 3e b8 d1 0a 3f ff 68 03 40 86 4e a9 40
       0.15992707 0.54226255 2.0532835 5.2908354
000260 80 cf f6 3f 7d 79 6f bd d6 55 3a 3f 9b 57 ef 3d
       1.9282074 -0.05846547 0.72787225 0.11686631
000270 7c 31 02 bf da c0 cd 3d 44 31 81 bd fa e1 85 3d
       -0.5085676 0.10046549 -0.06308225 0.06537242
000280 0a 68 d9 be 65 2b 09 41 e0 53 09 3f 64 ee 63 3f
       -0.42462188 8.573094 0.5364361 0.8903563
000290 86 01 0a 3f ac 08 a9 3c ae 63 38 3f 49 e6 2f 40
       0.53908575 0.020634018 0.720271 2.7484305
0002a0 12 00 07 3f f2 86 44 3d cc 5a 07 40 05 d9 b2 40
       0.5273448 0.047980256 2.1149168 5.5889916
0002b0 b5 29 9e bc 4b f0 86 3f 34 55 16 41 cd 1d 2f 3f
       -0.019306997 1.0542082 9.395802 0.6840485
0002c0 5a b8 01 c0 98 24 b7 3e 7f 9f 2b 40 41 b5 5f 40
       -2.026877 0.35770106 2.6816099 3.4954379
0002d0 50 99 7c 3f 06 da 92 3e cf 6d 8d 40 11 3d 1e 3f
       0.98671436 0.28681964 4.4196544 0.6181193
0002e0 71 7b 04 c0 d2 53 2c 3e e8 7e 21 be 92 a6 06 bf
       -2.0700343 0.1682885 -0.15771067 -0.52597916
0002f0 a6 04 2a 3f ad 25 b1 40 57 71 50 40 9f 0f 85 3f
       0.6641334 5.535849 3.2569177 1.0395392
000300 37 d9 03 3f ad a1 3c bf 2d ce d9 3f 3a 59 8b 40
       0.5150332 -0.736842 1.7016045 4.354642
000310 4e e6 ad bf ff b1 00 40 45 3c 83 40 eb b9 1b 3f
       -1.3585908 2.010864 4.101107 0.60830563
000320 ac 5b 56 bc b2 70 a8 3f bf 62 aa 3e cb 6f 97 40
       -0.01308338 1.3159392 0.33278462 4.7323966
000330 c5 d0 b2 3d 12 25 a9 40 53 4f 3b 3f 74 80 82 40
       0.08731226 5.285775 0.73167914 4.0781803
000340 25 e9 8b be a3 ad a3 40 29 cb 3c 3f 1e b2 f5 bd
       -0.27326313 5.114946 0.737475 -0.11996864
000350 02 ca b3 40 4a 80 e9 3d 45 5d d2 3e 90 63 8a be
       5.618409 0.11401422 0.41086784 -0.27029085
000360 70 c0 b6 bf 9b 64 39 bf a5 df 7e 3f 95 00 9d 3f
       -1.4277477 -0.72419137 0.99560004 1.2265803
000370 fb d2 bf 3f be f2 13 41 cb 7b 97 3e c9 10 a3 40
       1.4986261 9.246763 0.29586634 5.095799
000380 5e 79 b6 3f 1e ae 0a 40 3f db c0 3e b6 62 89 3e
       1.4255788 2.1668773 0.37667271 0.26833123
000390 0d 14 0a 3e bc d1 48 40 c5 31 a9 40 a3 27 1f 40
       0.13484211 3.1378012 5.2873254 2.4867942
0003a0 d4 b6 c9 3f 94 35 a1 3c 48 ab 7f 3f 37 88 06 3f
       1.575892 0.019678868 0.9987073 0.525516
0003b0 5c b8 c1 3f db 1f c1 3f 82 d1 f8 bf 5e e9 6d 3e
       1.5134387 1.5087847 -1.9438937 0.23233554
0003c0 9c 5f af 3f 91 6f 7a 40 2f b9 52 3e a8 5a 1e 3e
       1.3701053 3.9130595 0.20578454 0.1546427
0003d0 34 5c 0f 41 b3 91 b5 3e 01 34 2f 3e 4d b4 73 3f
       8.960011 0.35462722 0.17109682 0.9519699
0003e0 8b b2 8c 40 50 da 8b 3e c8 74 37 3f f7 e2 56 3f
       4.396795 0.27314997 0.7166257 0.8394007
0003f0 ee 4f c2 40 42 71 aa 3f 2d e8 b4 3f f5 40 09 3e
       6.072257 1.3315814 1.4133354 0.13403685

network_body._body_endoder.seq_layers.0.bias f4 [256]
000000 27 0f a1 be 76 01 94 be fe e3 b9 be 17 c1 b5 be
       -0.31456873 -0.28907365 -0.36306757 -0.35498878
000010 48 5a 6b be 6f ee ab be 6e ec 9d be 5b 6b 9a be
       -0.22983658 -0.33580348 -0.30844444 -0.3016003
000020 a3 ec ba be 5a 82 7c 3f 1b 8c bf be 0e 0a 90 be
       -0.36508664 0.986364 -0.3741158 -0.2813267
000030 60 d3 ae be a8 08 b7 be b5 59 b7 be 69 da b4 be
       -0.3414564 -0.35748792 -0.3581063 -0.35322884
000040 e8 fe a3 be b2 79 9b be 72 f2 ca 3e 10 c0 9a be
       -0.32030416 -0.30366284 0.39638096 -0.30224657
000050 63 78 af be 22 b9 a4 be 12 23 a7 be a3 e4 a5 be
       -0.34271535 -0.32172495 -0.32643944 -0.32400998
000060 ce 68 99 be 67 8b 80 3f 00 04 96 be 52 1e c4 be
       -0.29962772 1.0042542 -0.29299927 -0.38304383
000070 ff 20 83 be 3a dd 9b be 05 49 af be dc b6 a2 be
       -0.25611112 -0.3044222 -0.34235397 -0.31780136
000080 f4 cd 9e be 84 0d 5a 3f f1 e6 ab be 53 40 a0 be
       -0.31016505 0.85176873 -0.33574632 -0.31299075
000090 e6 ad 92 be bc 66 a9 be 5d 17 a8 be 51 ad b0 be
       -0.286483 -0.33086193 -0.32830325 -0.3450723
0000a0 c5 37 c8 be fd 00 be be d7 40 b3 be b9 a0 a7 be
       -0.3910505 -0.3711013 -0.35010406 -0.3273981
0000b0 c4 80 a4 be 2c ce a5 be 86 95 9c be 7e 35 b4 be
       -0.3212949 -0.3238386 -0.30582827 -0.3519706
0000c0 06 bb 9f be 36 00 a7 be 28 c4 70 be f2 3a a6 be
       -0.31197375 -0.32617348 -0.23512328 -0.32466847
0000d0 e6 9a ab be 2d 45 8f be f1 ea ac be 67 39 8f be
       -0.33516616 -0.27982464 -0.33772996 -0.27973482
0000e0 7d 99 ab be 33 6a 96 be 99 1d a8 be f6 b7 e1 be
       -0.3351554 -0.293779 -0.3283508 -0.44085664
0000f0 b7 83 91 be 23 04 a6 be 7a a2 98 be 89 35 08 40
       -0.28420803 -0.3242503 -0.2981146 2.1282675
000100 5b 51 aa be 5f 82 9c be fa 51 9b be 40 85 b7 be
       -0.33265194 -0.30568215 -0.3033598 -0.3584385
000110 80 78 a7 be 14 10 9a be 6f 9a 6a be 92 65 a8 be
       -0.32709122 -0.30090392 -0.22910474 -0.32889992
000120 4b ea ac be db 06 8e be 83 22 a2 be ac 28 b1 be
       -0.337725 -0.27739605 -0.31666955 -0.34601343
000130 a2 bb a9 be d5 28 98 be c0 a0 ae be e0 f4 8f be
       -0.33150965 -0.29718652 -0.34107018 -0.28116512
000140 48 31 a5 be d2 64 9b be 5f 5f 1c 3f 8c b0 8d be
       -0.3226416 -0.30350357 0.61083025 -0.27673757
000150 99 77 a5 be b4 fe b0 be 80 08 ae be cb c4 9b be
       -0.32317808 -0.34569323 -0.3399086 -0.3042358
000160 2b 93 a5 be c3 36 a7 be 3e 22 9d be cf dd a0 be
       -0.32338843 -0.32658967 -0.30690187 -0.31419227
000170 71 d9 c2 3f cd 27 a6 be ac 77 96 be 30 ee 97 be
       1.5222608 -0.3245224 -0.29388177 -0.2967391
000180 bc ef aa 3f d6 30 b2 be 3e 11 98 be 8d 1a ac be
       1.3354411 -0.34802884 -0.29700655 -0.33614007
000190 28 fb a6 be 09 ca 8a be 8b 42 b0 be 9b ea bd be
       -0.32613492 -0.27107266 -0.34425768 -0.37093052
0001a0 36 d3 9d be 07 e7 97 be 5e fb de be 6d 3d 88 be
       -0.30825204 -0.29668447 -0.43551153 -0.26609364
0001b0 9d 5a cf be c6 4b a7 be 01 5a ad be 9e 10 aa be
       -0.4049882 -0.32674998 -0.3385773 -0.33215803
0001c0 8d 28 9d be 95 a6 bb be e4 ec ba be a3 cf a4 be
       -0.30695 -0.3665053 -0.36508858 -0.32189664
0001d0 12 92 ab be f1 ba 8f be f9 4c 9a be a8 d3 a5 be
       -0.3350988 -0.28072312 -0.3013685 -0.32388043
0001e0 fc 0a a0 be a1 c7 99 be c2 41 93 be 41 42 a1 be
       -0.3125838 -0.30035117 -0.28761107 -0.3149586
0001f0 63 9d 9b be b8 2a 93 be c7 d2 a1 be 21 6a ae be
       -0.30393514 -0.2874353 -0.31606123 -0.34065345
000200 19 37 a5 be 98 6d 8a be 95 bd c7 be 7a 2c a8 be
       -0.322686 -0.27036738 -0.39011827 -0.32846433
000210 8a 1e a3 be d9 bc 98 be 4e 7a 96 be 6e 90 ad be
       -0.31859237 -0.2983158 -0.29390186 -0.33899254
000220 60 79 a4 be 50 1c 9d be 86 89 ab be 28 f2 ab be
       -0.32123852 -0.30685663 -0.3350336 -0.33583188
000230 6e 7a a7 be a8 ef bb be 0f 2d b9 be bd ae 9d be
       -0.32710594 -0.3670628 -0.3616719 -0.30797377
000240 2a 8a b1 be 6a 04 a1 be 3d 16 b3 be 63 34 9a be
       -0.34675723 -0.3144868 -0.34977904 -0.30118093
000250 98 04 a3 be 3b c2 a3 be 12 96 99 be 8d ec 9e be
       -0.31839442 -0.31984124 -0.29997307 -0.3103985
000260 bf 9f 8c be 37 ec 99 be ef 07 9d be af d7 9a be
       -0.27465627 -0.3006303 -0.30670115 -0.3024268
000270 fb 6b e1 be b4 45 b6 be 4d 1d 8a be 72 ab 8e be
       -0.44027695 -0.35600054 -0.2697548 -0.27865177
000280 d4 04 9e be 77 fe db be 01 1e a0 be a9 24 98 be
       -0.3086306 -0.4296758 -0.3127289 -0.2971547
000290 ce fb 97 be 39 3e 9c be 44 a4 a7 be 3d d6 be be
       -0.296843 -0.30516222 -0.32742512 -0.37272826
0002a0 d5 e9 b4 be d5 84 9a be 64 e0 9b be 80 28 aa be
       -0.3533465 -0.30179468 -0.30444634 -0.33234024
0002b0 cc 3f a4 be 4a 56 9c be a1 eb 16 40 31 1b b5 be
       -0.32079923 -0.30534583 2.3581316 -0.35372308
0002c0 1d e3 cc be 71 b2 91 be 98 b8 91 be 73 cb 97 be
       -0.40017024 -0.28456452 -0.28461146 -0.29647407
0002d0 f4 46 f4 3f f6 99 86 be 89 5b 96 be 5f 81 9f be
       1.9084153 -0.26289338 -0.2936671 -0.3115339
0002e0 d1 82 9b be 63 f9 b3 be dc be a2 be ed 5f 94 be
       -0.30373242 -0.35151204 -0.3178624 -0.28979436
0002f0 67 d6 bd be 11 db a9 be cd 0b a4 be 8e 57 b2 be
       -0.37077639 -0.33174947 -0.32040253 -0.34832424
000300 58 04 9a be 4c 07 a0 be 2c 6a d2 be f2 44 a3 be
       -0.3008144 -0.31255567 -0.41096628 -0.3188854
000310 b7 ec bf be 63 ac a2 be 19 68 a1 be e6 49 a7 be
       -0.37485287 -0.31772146 -0.31524733 -0.32673568
000320 73 44 a4 be ad 25 a3 be 72 52 9e be c9 6b 8f be
       -0.32083473 -0.31864682 -0.30922276 -0.2801192
000330 8c 96 a1 be 5c 5d a6 be b7 51 95 be 6d 90 ad be
       -0.3156017 -0.32493103 -0.29163906 -0.3389925
000340 ac 6b a1 be 68 95 b9 be 94 95 c8 3f 7b 90 d2 be
       -0.3152746 -0.362468 1.5670648 -0.41125855
000350 a6 c0 b3 be 81 65 a5 be 48 2d a7 be e4 54 b8 be
       -0.35107917 -0.32304004 -0.32651734 -0.36002266
000360 a3 f6 00 bf aa ba 8a be 7a da b3 be 2c 06 ab be
       -0.5037634 -0.27095538 -0.35127622 -0.33403146
000370 78 68 09 40 fe 79 a9 be d2 2a 68 3f 75 59 c4 be
       2.1470013 -0.33100885 0.9069034 -0.383495
000380 a0 6f 9d be c3 ab ad be 75 bf b8 be bb 41 9f be
       -0.30749226 -0.33920106 -0.3608357 -0.31104836
000390 20 0b af be 93 dc 9b be 09 b4 99 be f4 54 97 be
       -0.34188175 -0.30441722 -0.30020168 -0.29557002
0003a0 cc 0a 9f be fc 2f b6 be 00 ca a3 be 9f e9 87 be
       -0.31062925 -0.35583484 -0.3199005 -0.26545426
0003b0 e8 76 a8 be 33 28 99 be 2a 5f ab be 67 1a 99 be
       -0.32903218 -0.29913482 -0.33471042 -0.29902956
0003c0 4f dd 93 be 0f cd 9d be 62 73 9d be d9 94 9e be
       -0.28879783 -0.3082051 -0.30752093 -0.30972937
0003d0 d6 7d af be 52 e7 8e be 3d e3 96 be 9c a0 99 be
       -0.34275693 -0.27910858 -0.29470244 -0.30005348
0003e0 56 82 9f be 0f d2 a4 be 91 4d a9 be 5d fa a0 be
       -0.31154126 -0.32191512 -0.3306699 -0.31441012
0003f0 83 70 a5 be 5b 38 ae be 1e d0 a5 be 90 b9 af be
       -0.32312402 -0.3402737 -0.32385343 -0.3432126

network_body._body_endoder.seq_layers.0.weight f4 [256, 71]
000000 14 f7 ca 3e 9a 77 4c 3e 08 5c bf be af 9b 09 bf
       0.3964163 0.199675 -0.37374902 -0.5375318
000010 61 6e 83 bc 0f 4d cd bc d7 eb 02 bf 36 bc b7 be
       -0.016043844 -0.025061158 -0.51141113 -0.3588578
000020 7b fa c8 bd 2e a8 2a 3e 45 79 cc be 98 82 4f be
       -0.098134 0.16665718 -0.3993627 -0.20264661
000030 28 6c ad bd ea 1d 0e 3b 55 8d e6 be b7 e0 6b be
       -0.08467895 0.002168531 -0.45029703 -0.2303494
000040 ba 88 01 3e 66 1d 44 bd af 08 de be 9b 15 9f be
       0.12649813 -0.0478796 -0.43366 -0.3107117
000050 57 e7 58 3d 16 92 cf bd 1a ea 00 bf 9e 11 cb be
       0.052954998 -0.101352856 -0.5035721 -0.39661878
000060 4f 54 0f be 3b e9 64 bb fb 9b 89 be c1 49 7d be
       -0.13997005 -0.0034929055 -0.26876816 -0.24735166
000070 b4 65 19 be 45 b3 9f 3d 7f 24 97 be cb 24 a8 be
       -0.14980203 0.07797865 -0.29520032 -0.3284057
000080 cf c0 d7 3d bd 5e ff bd 00 02 97 be 3a 72 23 bd
       0.10534822 -0.12469242 -0.29493713 -0.039903857
000090 90 e5 d0 bc fd af 6c 3d 1c cb b8 be b9 a9 af be
       -0.025500089 0.057785023 -0.3609246 -0.34309176
0000a0 74 2a bc 3d ef 35 09 bd 45 2a 6a be 34 2a cd be
       0.09187785 -0.0334987 -0.22867687 -0.4007126
0000b0 2a 9a 80 bd 2d 81 6e 3e 08 d2 12 be bf f1 81 be
       -0.062794045 0.23291464 -0.14337933 -0.2537975
0000c0 8b 73 02 be a9 43 70 3e 8c b8 e0 be f5 f3 8a be
       -0.12739389 0.2346331 -0.43890798 -0.2713925
0000d0 fc 80 4b 3d c0 09 a0 bd 65 e2 34 be 75 7f 86 be
       0.049683556 -0.0781436 -0.17664488 -0.26269117
0000e0 83 7c 9e bd 26 49 dc bd 4c fb 0b bf 47 4c d0 bd
       -0.077385925 -0.107561395 -0.54680324 -0.10170799
0000f0 2d 10 f1 be 60 bd ff be 87 96 d2 bc d1 26 c3 3e
       -0.47082654 -0.4994917 -0.025706543 0.38115552
000100 db cb e4 be 83 3f 15 bd 20 38 ca be 1e 7b 81 be
       -0.4468678 -0.036437523 -0.39495945 -0.25289243
000110 99 4f 40 3e cd 83 a1 3c b5 df e7 be 36 10 94 be
       0.18780364 0.019716168 -0.45287862 -0.28918618
000120 a0 46 74 3d e3 ba 1d bd da 80 17 bd f7 19 92 bd
       0.059637666 -0.038508307 -0.036988117 -0.07133859
000130 73 a1 27 be 00 b4 b2 be 8d 40 d1 be 8f db 84 be
       -0.16370182 -0.34902954 -0.4086956 -0.2594876
000140 0b ae 1b bd 42 ce b0 be 5b 46 ec be 0e 48 9f be
       -0.038007777 -0.34532362 -0.46147427 -0.3110966
000150 ea c8 ae 3d 30 d0 92 be f9 8c 1c be 78 8d 79 be
       0.08534415 -0.2867446 -0.15288152 -0.24370372
000160 9e ef 84 3c fa 98 5e be 69 6b 0d bf 94 fa 22 be
       0.01622754 -0.21738043 -0.5524202 -0.159159
000170 33 a7 37 3b e2 a7 cd be 1f 76 88 be 3e 6f 08 3e
       0.0028023242 -0.40167147 -0.2665262 0.13323686
000180 57 2e 35 3e 29 9a c0 be 09 7b 2c be 33 eb eb bd
       0.17693458 -0.37617615 -0.16843809 -0.1151947
000190 9a b1 11 be 66 a1 b0 be 6a 8a 32 be 43 83 3f bc
       -0.14227906 -0.34498137 -0.17435613 -0.01168901
0001a0 6b 93 87 3d 94 88 82 be bb 78 ab be 65 a6 85 3d
       0.066199146 -0.25494826 -0.33490548 0.06525878
0001b0 6d b0 93 bd 7e 7a ea be 78 aa 06 be fd 78 17 3e
       -0.07211385 -0.4579658 -0.13150966 0.14792247
0001c0 20 25 b6 3b 98 34 db be bc 5e 82 be 1f 28 84 bd
       0.005558625 -0.42813563 -0.25462902 -0.06452965
0001d0 c1 59 9d 3c 93 57 9d be e0 21 51 be c4 7d bd bc
       0.019207837 -0.30730876 -0.20423079 -0.023131259
0001e0 b7 65 66 3e 7f 9b 85 be 53 5a c7 be 2d 39 4a bd
       0.22499739 -0.26095197 -0.389361 -0.049370933
0001f0 80 e6 46 3e c0 8f fb be cb 8f b2 bd 6c 43 c6 3d
       0.19423866 -0.4913311 -0.087188326 0.096808285
000200 ab 1c 34 3e c4 23 02 bf 93 cb 57 be 6a a6 9f be
       0.17589061 -0.50835824 -0.21073751 -0.3118165
000210 a7 17 f3 bd 01 4b 34 bf 0c f8 7a 3e 16 2f c8 be
       -0.11869746 -0.70426947 0.24508685 -0.39098424
000220 af 07 2b bf 77 68 b3 bd 17 8f c3 be 50 0e 5d be
       -0.668086 -0.087601595 -0.38195106 -0.21587491
000230 f6 cf 93 3d 16 eb 4f be 68 04 7a bf 40 7f 0e 3d
       0.072174 -0.20304522 -0.97662973 0.034789324
000240 76 a6 0e bf 07 e2 e8 be 19 b9 61 bf 69 1b ed bc
       -0.5572275 -0.45484945 -0.8817306 -0.028943734
000250 22 9f 96 be 7e 66 f9 be bd 3e 9a 3f 86 ac 1d bd
       -0.29418284 -0.48711008 1.2050396 -0.03849461
000260 48 9c 7c c0 85 92 d1 bf 20 c2 f6 bf 92 f2 af 3d
       -3.9470387 -1.6372839 -1.9277992 0.085911885
000270 ec 97 8c be 3c 57 be be 66 32 07 c0 75 99 93 bd
       -0.27459657 -0.3717593 -2.112451 -0.07207004
000280 82 c1 aa bd a3 d4 94 be b0 18 07 be d8 fd 83 bc
       -0.0833769 -0.2906848 -0.13193011 -0.016112253
000290 ab 8c 02 be 0c a3 c3 be c7 fe 05 c0 9d be 52 3e
       -0.12748973 -0.38210332 -2.0936754 0.20580526
0002a0 ee 7d 9a be d1 12 5e be e4 ab 89 bc 02 47 e4 bd
       -0.30174202 -0.21686865 -0.016805597 -0.11146356
0002b0 46 86 72 be c7 32 ce be b2 55 2a 3e 95 99 04 3d
       -0.23684034 -0.40273115 0.16634253 0.03237303
0002c0 ef 66 89 be c2 01 a8 be af 0d c3 3d 1d f8 86 bd
       -0.26836345 -0.3281384 0.09524094 -0.065902926
0002d0 35 bf a0 be c4 29 d1 be 8e 7b c6 bd 88 c9 3c bc
       -0.3139588 -0.40852177 -0.09691535 -0.011522658
0002e0 9c 9f b4 be 01 b6 06 bf 6f 1c d4 bd 5c 9a 46 be
       -0.35278022 -0.52621466 -0.10356986 -0.19394821
0002f0 c2 f5 4d be b7 56 e5 be 9d 9a d9 3c ae d9 85 bd
       -0.2011328 -0.4479272 0.026562983 -0.0653566
000300 7d db ce be b9 97 06 bc 35 ed 2b 3b c7 a7 75 bd
       -0.4040183 -0.008214884 0.0026233916 -0.059974458
000310 ec 91 8a be 12 b8 4a be 50 41 ee bd 35 eb 57 bd
       -0.27064455 -0.1979678 -0.11633551 -0.052714545
000320 2a 2f bd be 6d 9c 25 be 7d 41 7e be 72 33 5e 3d
       -0.36950046 -0.16172953 -0.2482967 0.05424828
000330 1e 0c 3d bf 83 ad e6 3e 52 99 f2 be 28 fc 4e bf
       -0.73846614 0.45054254 -0.473826 -0.8085351
000340 72 21 2b be e5 3e 01 bf 88 5b 88 be 28 da ae 3d
       -0.16711977 -0.50486594 -0.26632333 0.08537704
000350 3f 80 97 be 8e 7f a0 3e 43 d0 35 3d 51 d7 75 be
       -0.29590032 0.31347317 0.044388067 -0.24007918
000360 08 2b 9e be 8b 15 c7 bd f3 12 81 bd eb 0f 64 be
       -0.30892205 -0.09720906 -0.063024424 -0.22271697
000370 8b 31 ba be 6e 46 a1 be d3 4b 11 be 02 fc 00 bf
       -0.36365923 -0.31499046 -0.14189081 -0.50384533
000380 24 86 ac be 75 48 8a 3d 70 df 82 3d 7c 6b f2 be
       -0.3369609 0.06752101 0.063902736 -0.4734763
000390 59 99 af be fc 56 26 bc 73 1d 23 3e 9d 89 32 be
       -0.34296682 -0.010152575 0.15929203 -0.17435308
0003a0 db 6b fe be 32 e0 e7 bd 42 f9 83 bd 61 56 e9 be
       -0.49691662 -0.11322059 -0.064440265 -0.45573714
0003b0 dc 62 d7 be ef 5a a1 be 6b 40 0c be 95 98 c1 be
       -0.4206761 -0.3151469 -0.13696449 -0.37811723
0003c0 a4 24 4e be b8 46 91 be 06 ce fe bd 90 74 49 be
       -0.20131165 -0.28374267 -0.124416396 -0.19673371
0003d0 72 8d e0 be e3 a2 d3 bd 22 e2 1d be 31 f5 c6 be
       -0.43857914 -0.103338026 -0.15418294 -0.3885894
0003e0 5e ba a6 be c5 2b 86 3d f0 e8 cc 3d 4d 98 bd be
       -0.32564062 0.06551317 0.10005367 -0.3703026
0003f0 1a eb a8 be 87 8f 15 3c 6b 52 4f 3d af 60 13 bf
       -0.32991868 0.009128458 0.05061571 -0.575694

network_body._body_endoder.seq_layers.2.bias f4 [256]
000000 ba 96 42 bf 43 5f 25 bf c7 05 51 3f 08 97 52 bf
       -0.7601124 -0.6459848 0.8164944 -0.82261705
000010 bb 93 5a 3e bb 96 cf be 10 4b 29 bf d2 53 ab bf
       0.21345417 -0.40544686 -0.6613016 -1.3384955
000020 97 69 5c 3f 6c 64 7b 3d 33 7f 09 40 5f f5 8f 3e
       0.8609862 0.061375067 2.1483886 0.2811689
000030 67 77 b3 bf 7a 44 42 3f 8f 75 85 3f 9b 27 09 3d
       -1.4020814 0.75885737 1.0426501 0.033485036
000040 e2 49 47 3e 47 31 25 3e d0 61 70 3f ba 34 b9 bf
       0.19461778 0.16132079 0.9389925 -1.4469216
000050 da 33 8c bc 48 71 84 3f a2 e0 8f 3f fb d6 24 40
       -0.017114569 1.0347071 1.1240427 2.5756214
000060 47 70 1e bf eb 1e 29 40 f9 ed 85 bd 48 4b d3 bf
       -0.6189007 2.642512 -0.0653953 -1.6507349
000070 91 b0 09 40 c9 3b 03 bf 47 51 23 bf cc 45 0f 3e
       2.1514018 -0.512631 -0.63795894 0.13991469
000080 8c 06 16 be d4 7e 85 bd 3e ed 7b be eb 3d 83 3e
       -0.14650935 -0.06518331 -0.2460222 0.25633177
000090 27 a8 30 40 0c 65 85 bd 8e e2 1f 3e 25 99 06 bf
       2.7602632 -0.06513414 0.15613768 -0.5257743
0000a0 e3 fa 8a 3d 16 25 e6 bd 3c 16 5e 3e 3a e4 88 bf
       0.06786134 -0.11237542 0.21688169 -1.0694649
0000b0 17 e5 43 be ed 5e 34 3e 44 d5 31 3f 87 86 0e 40
       -0.1913036 0.17614336 0.6946604 2.226961
0000c0 5e 42 13 3f c7 dd 0a 3e 09 e5 05 c0 73 96 6a bf
       0.57523143 0.13561164 -2.0921042 -0.9163582
0000d0 7c c9 ee be 77 82 8e bf ef 71 57 be 76 99 01 bf
       -0.46638095 -1.1133565 -0.21039556 -0.5062479
0000e0 48 8a 4b bf ca 34 9d bf 8e 62 c3 3f 7c c8 d6 be
       -0.79507875 -1.2281735 1.5264452 -0.41949832
0000f0 99 05 c8 bf 18 ad 12 3e 93 ba 2b bd f3 16 75 bf
       -1.5626708 0.14323843 -0.041925978 -0.9573814
000100 4f 00 86 be f6 71 7d bd 26 2c a2 3f 3c 92 c7 be
       -0.2617211 -0.06187626 1.2669723 -0.38978755
000110 d3 3e 20 be bc 81 03 3e 0f eb 81 be 53 f0 8c 3c
       -0.15648966 0.12842458 -0.25374648 0.01720444
000120 ee 84 61 be 5d cf 37 c0 3a 84 db 3f a9 4d 08 40
       -0.22023365 -2.8720315 1.7149727 2.12974
000130 a1 2c f4 3f 05 67 d2 be e9 8b 5d bf 0c 62 f2 3b
       1.907612 -0.41094223 -0.8654161 0.007396942
000140 4a 69 73 be 8c 1c d9 3f 24 c1 01 be 3f 8b ed 3f
       -0.23770633 1.6961837 -0.12671334 1.855812
000150 c5 c9 27 3f f9 6b be bc 8e 8a bf bf bf 7e 26 40
       0.6554225 -0.023244845 -1.4964159 2.601486
000160 da 67 1c 3e de 78 6d 3f 48 0b ff 3c 95 f9 14 3f
       0.15273991 0.92762554 0.031133309 0.5819333
000170 09 86 fc bd ec cb ed be a3 b6 c4 be 47 81 25 bf
       -0.12330253 -0.46444643 -0.3842059 -0.64650387
000180 cc 74 00 40 ae f4 4b bf cf 9d 77 3e e0 0e 0c 40
       2.0071287 -0.79670227 0.24181293 2.188408
000190 95 56 29 40 6e 01 84 be 70 b7 01 bf cd f7 30 40
       2.6459095 -0.2578234 -0.5067053 2.7651246
0001a0 2f c6 9a be 8f 47 53 bf 08 50 c1 be af df ad 3f
       -0.30229327 -0.82531065 -0.37756371 1.3583888
0001b0 6c 3f 14 40 68 ab 1c 40 f2 8e 2f 3f 7b 0b f4 bf
       2.316371 2.4479618 0.6857749 -1.9066004
0001c0 66 ac e4 be 04 d7 10 40 8b be 95 3e 6c 9b 57 bf
       -0.4466278 2.2631235 0.29246935 -0.8422153
0001d0 be 18 d6 3c 29 84 05 c0 7d 4f c2 3e dc 5a a5 be
       0.026134845 -2.0861914 0.3795127 -0.32295883
0001e0 05 d3 12 be dd 62 47 bf a7 ae d4 3e 35 d0 8f 3f
       -0.1433831 -0.7788523 0.415395 1.1235415
0001f0 d6 3b 32 40 61 82 13 40 f1 45 ba 3e 72 46 07 40
       2.784902 2.3048327 0.36381486 2.1136746
000200 5a ca d0 be 40 e0 04 40 0a a4 5d 3d 29 d0 8a 3e
       -0.40779382 2.0761871 0.054111518 0.2711194
000210 5c f2 99 3f cc 8c a4 bd 4d 92 fa be fd 71 28 bf
       1.2027087 -0.080346674 -0.48939744 -0.6579893
000220 9f 0e 10 40 f9 6a 7b 3f 3b 46 d5 bf 95 92 f7 bc
       2.2508924 0.982101 -1.6662058 -0.030221263
000230 d3 17 ab bf 9c 8e ee 3f 61 13 3a 40 d4 28 f7 bc
       -1.3366646 1.8637271 2.9074328 -0.030170836
000240 0d ac 21 40 a7 d0 3a c0 22 ad 0e 40 b9 67 cc be
       2.5261261 -2.9189851 2.2293172 -0.39922884
000250 0d 13 83 bf f9 e1 7c 3e 5a 17 ee be 0b 7b 92 3f
       -1.0240189 0.24695577 -0.4650219 1.14438
000260 e4 6c 7e 3e 7c 93 ec be e1 84 b5 be 75 2f 3d be
       0.24846226 -0.46206272 -0.3545294 -0.18475135
000270 13 48 03 bf c6 15 25 bf 7e 4d 5f bf af a9 a8 be
       -0.5128185 -0.6448635 -0.8722762 -0.32941958
000280 ec e4 85 bf 8c d3 37 40 8a 6f b0 3d 25 67 0e be
       -1.0460486 2.8722868 0.086150244 -0.13906534
000290 1c da c7 be 61 af e1 bd bf dc fa 3e f7 9b e3 3f
       -0.39033592 -0.11019779 0.4899654 1.7781972
0002a0 42 98 ed be 50 bd df bf e5 74 bf bf 44 62 a7 3f
       -0.46405226 -1.7479649 -1.4957548 1.3076863
0002b0 36 75 c2 be 36 52 44 3e 7c eb 0f 40 e6 0f 4b bd
       -0.3798005 0.19171986 2.2487478 -0.04957571
0002c0 80 5b a7 be 76 41 29 bf 71 d0 29 3f 47 61 da 3f
       -0.32686996 -0.6611551 0.6633368 1.7060937
0002d0 89 46 66 3e 52 66 03 bf 26 62 5f bf 03 b7 29 3e
       0.22487845 -0.51328003 -0.8725914 0.1657372
0002e0 0c c7 89 bf 99 c3 93 bf 0e 7f 19 bf 32 64 cf bf
       -1.0763869 -1.1544067 -0.59959495 -1.6202452
0002f0 00 39 d9 be 88 68 fc 3f 99 25 f5 3f 9a 45 88 3e
       -0.424263 1.97194 1.9152099 0.26615602
000300 be 7e 15 be de 64 1f bf 7a a1 fb be 61 96 dc bd
       -0.1459913 -0.62263286 -0.49146634 -0.1077087
000310 e1 a7 04 c0 fd 2e 0d 3f 51 ee 97 3f 5a 7a d9 3c
       -2.0727465 0.55149823 1.1869603 0.0265476
000320 71 ad ab be 15 4c c3 3e bd 9a fd be 73 e6 81 3f
       -0.33530763 0.38143983 -0.49532118 1.0148453
000330 bc be 02 c0 e0 71 0c 3f 4d 77 91 be 00 36 0c 3f
       -2.0428915 0.5486126 -0.28411332 0.547699
000340 38 c6 04 bf f6 a4 f9 3f ce a4 45 be e0 29 3a bf
       -0.5186496 1.9503467 -0.19301149 -0.72720146
000350 71 fa 1f 40 c5 f8 38 bf 87 62 3f bf d0 3e 0e c0
       2.4996607 -0.7225459 -0.74759716 -2.2225838
000360 41 65 ac 3e 84 8b bd bf 10 4b df bf 77 3a e4 3d
       0.33671 -1.4808202 -1.7444782 0.11143964
000370 c9 d2 37 3e 4a 7d dd 3f 77 b7 43 be e4 21 d5 3f
       0.17951502 1.730386 -0.19112955 1.6650968
000380 ff 87 91 3e 56 51 4e 3f df d4 35 bf 9c 15 ac be
       0.2842407 0.8059286 -0.7102794 -0.33610237
000390 19 a4 0d bf b9 0d 0f 3e 27 98 de 3f e1 2f 86 3e
       -0.5532852 0.13970079 1.7390183 0.26208404
0003a0 e7 93 e7 bf ce 6e 52 bf e0 53 8a bb a5 e2 29 be
       -1.8092011 -0.82200325 -0.0042214245 -0.16590364
0003b0 68 31 20 bf 79 cd 53 3f 0d 22 ec bf ea 89 88 be
       -0.6257539 0.827354 -1.8447891 -0.2666772
0003c0 70 3c 20 3f 80 78 98 3f af 0e eb 3e 4c 22 33 bf
       0.6259222 1.1911774 0.4590964 -0.6997421
0003d0 87 05 33 40 89 cb f5 bc 96 fc 0d bf 4f 04 e4 3e
       2.7972124 -0.03000428 -0.5546354 0.44534537
0003e0 00 65 d2 3f 69 c5 f7 3e 2c a1 8c bd 85 04 44 be
       1.6437073 0.483928 -0.068666786 -0.19142349
0003f0 a7 aa 08 40 c8 cf e0 bf 3e ea de 3e d6 94 16 bf
       2.1354158 -1.756341 0.43538088 -0.58820856

network_body._body_endoder.seq_layers.2.weight f4 [256, 256]
000000 6e 28 bc 3d 5c 75 17 bc 07 90 af 3e bb 45 1a 3d
       0.09187399 -0.009244289 0.34289572 0.037664156
000010 b8 07 1f 3e f2 7e 17 3e a7 1e 44 3e 14 af 5c be
       0.15530288 0.1479452 0.19152318 -0.21551162
000020 c5 ac f6 3d b8 57 1b bd 7c a2 2d be ee ab 08 be
       0.12044672 -0.037925452 -0.16956514 -0.13346836
000030 06 b6 93 3d 99 78 90 3e 4a 13 96 bd 75 05 87 3e
       0.072124526 0.2821701 -0.07327898 0.2637135
000040 6f be b5 3e 30 0c 83 3e e5 68 c0 bb eb cf 10 3e
       0.35496852 0.25595236 -0.0058718794 0.14141814
000050 41 6f d5 bd d7 16 f1 3d 94 9e b1 3e 7d 86 0d 3e
       -0.104216106 0.117719345 0.34691298 0.13820834
000060 59 ca a0 3d 50 80 ed 3e 90 61 91 3e e8 be 84 3e
       0.07851095 0.46386957 0.28394747 0.259269
000070 10 b4 17 3d ef df 0c bb 3e 31 02 3e e8 cb 6d be
       0.037036955 -0.002149578 0.12714097 -0.23222315
000080 2e 29 9c 3e e7 99 89 bf 6f 12 f4 bb fc f7 4a 3e
       0.30500168 -1.0750092 -0.0074484865 0.19821161
000090 61 e7 b1 bd 01 e5 3b 3e d6 4e 90 3e dd 29 95 3e
       -0.0868671 0.18349077 0.28185147 0.29133502
0000a0 5c f9 96 bd 6d 24 7c be 7d cb 2b 3e cf e2 84 3e
       -0.0737178 -0.2462327 0.16776843 0.2595429
0000b0 64 90 58 3d 91 27 3d 3d 0f 12 25 3e 18 ac f2 3d
       0.052872077 0.04618031 0.1612017 0.118492305
0000c0 45 61 6d be 27 f2 da 3e 83 0a b3 3c 33 30 e3 3e
       -0.23181637 0.42762873 0.021855598 0.4437271
0000d0 fb da ff bb 88 08 4d be f9 aa 47 3c 38 c1 08 3e
       -0.007808087 -0.20022786 0.012186759 0.13354957
0000e0 84 5a 57 3e f9 c6 10 3e 9a 2a e7 3c 87 28 35 bf
       0.21030623 0.14138402 0.028218556 -0.70764965
0000f0 10 f1 23 3e 9f ce 29 3e 62 00 b2 3d 22 7d 96 3e
       0.16009927 0.16582726 0.08691479 0.29392344
000100 48 2a ab bc d2 85 93 3d a7 0a 71 bd b7 65 4b be
       -0.020894185 0.072032586 -0.05884805 -0.1986302
000110 b1 2e 07 3e 84 53 1e 3e 15 e8 3c bd 44 91 58 be
       0.13201405 0.15461546 -0.04611977 -0.21149164
000120 b4 86 89 3e 73 5e e7 3c 54 ed 2d be d3 3f bc 3f
       0.26860583 0.02824328 -0.16985065 1.4706978
000130 2d ac d7 3d 92 6c 6c be ec 16 5a bb 4d 27 c3 3d
       0.10530887 -0.23088291 -0.0033277823 0.095289804
000140 52 05 e1 3c e9 ec 84 3e 92 b6 ec 3e f3 62 76 3e
       0.027468357 0.25961998 0.4623304 0.24061184
000150 b6 f6 26 bd 58 26 5b 3e 7c 09 b2 3c 71 86 82 3e
       -0.040762626 0.21401346 0.021733038 0.25493196
000160 32 4d e1 bd fb 83 9c 3c d8 d0 a2 3d 76 c0 2d 3e
       -0.11001052 0.019105902 0.0794999 0.1696795
000170 ab cf e6 bc 4e ec 4a be 0a 8a 5c 3e 64 c5 d7 3e
       -0.028175196 -0.19816706 0.21537033 0.42142785
000180 96 34 95 bd c6 3a 04 be fd 0e 67 3f ae bd e2 3e
       -0.072854206 -0.12913045 0.90257245 0.4428534
000190 df 9c 2d be ed 3f 2a 3d db f4 01 3e 39 00 4c 3e
       -0.16954373 0.04156487 0.12691061 0.1992196
0001a0 47 cb 77 3d 2f f9 e9 3b e2 2d bc bd 29 5b 11 3d
       0.060496595 0.0071403007 -0.09188439 0.035487328
0001b0 61 76 40 3f f3 b7 f1 3c 58 7f 92 3a 48 85 63 bd
       0.7518063 0.02950666 0.0011176867 -0.05554703
0001c0 e2 cd c4 3d 13 dd de 3e d2 c6 0a 3e 87 f8 2f bd
       0.096095815 0.4352804 0.13552406 -0.042961624
0001d0 25 4a 71 3d eb 44 b4 bd 01 02 c4 3c f5 18 df 3d
       0.0589086 -0.088022076 0.023926737 0.10893432
0001e0 30 2c 13 3e 19 6f 5c 3e 4c 54 f2 3c 52 b4 11 bd
       0.14372325 0.21526755 0.029581212 -0.035572357
0001f0 fe 0d 55 3e a2 f3 f8 bd 44 00 0d 3c ce 53 d2 bd
       0.20806119 -0.12155844 0.00860602 -0.10269891
000200 2e 46 22 be 16 45 be bd 10 be 34 3e e6 6c e2 bd
       -0.15847084 -0.09290521 0.17650628 -0.11055927
000210 3e 85 2c be b1 69 31 3d b0 66 59 3e 05 62 98 3e
       -0.16847703 0.043313686 0.21230578 0.29762283
000220 f7 11 4c 3d ea c2 2f 3e fb 04 87 3e 9a 85 0a 3e
       0.04982182 0.17164198 0.26370987 0.13527527
000230 68 79 0f 3e 5e 69 03 be 8a e2 07 3e 03 f5 fc 3d
       0.14011157 -0.12833163 0.13270012 0.1235142
000240 c7 6f ba 3b d3 cf e0 bd e3 99 9d 3e 88 c9 aa 3b
       0.0056895944 -0.10977139 0.3078147 0.0052120127
000250 f9 ee 25 3e bf 8e 3a 3e e0 fe a5 3d 08 b2 84 bd
       0.16204442 0.18218516 0.08105254 -0.06479269
000260 75 3e c0 3c 05 82 0f 3d 9a 5a 3a 3c dd 68 09 3d
       0.023467282 0.035036106 0.01137414 0.03354727
000270 9d fc d8 3d 5f d2 02 3e 5c 2b dc 3e 87 29 4a be
       0.10595057 0.12775563 0.4300183 -0.19742404
000280 e4 5f a8 3d d6 08 6c 3d 6f 51 11 3e bf 54 f4 bd
       0.08221415 0.057625614 0.1419122 -0.119302265
000290 60 ca 63 bd 62 f5 36 3e fc 35 24 bc f5 2d ed 3e
       -0.05561292 0.17867044 -0.0100226365 0.46324125
0002a0 a4 55 29 3e 3a 32 92 3e a2 38 01 3c 40 40 03 3d
       0.16536576 0.28553945 0.0078870375 0.032043695
0002b0 09 15 0e 3e fc 97 61 3d d4 92 c0 be 49 97 bf 3d
       0.13875212 0.055076584 -0.3761202 0.09355027
0002c0 a9 4a 4a be 8a af 7a 3d 4c ec 13 be 00 20 73 3b
       -0.19755043 0.061202563 -0.14445609 0.003709793
0002d0 5b dc bc be 41 a3 87 be e9 a2 fe 3d 86 de de bd
       -0.36886868 -0.2649174 0.124334164 -0.10882287
0002e0 e0 be 7b 3d 7c bb 08 3e 66 5e cf bc 47 47 1e 3e
       0.06146133 0.1335277 -0.025313567 0.15456878
0002f0 8f 62 07 be 6f 27 e4 3d 41 81 eb 3d 18 1a 1c be
       -0.13221191 0.11140334 0.114992626 -0.15244329
000300 f4 c4 22 3d 11 9d 24 3e ac 29 95 3d 2f ac 52 3d
       0.03973861 0.16075541 0.07283339 0.05143374
000310 57 92 30 be 5d f2 ab 3e 7e 9d 60 bd 57 cc 0d be
       -0.17243324 0.33583346 -0.054837696 -0.1384748
000320 0a af a2 3d d3 64 f1 bd 70 40 d8 3d 6c 3e 11 3d
       0.07943542 -0.11786809 0.105591655 0.03545992
000330 2b cd bf bd f6 ef f8 3d 99 62 36 bd 93 56 ed 3d
       -0.093653046 0.12155144 -0.044527624 0.11588778
000340 1b 37 2f bd a1 ed df bd 93 de 1e bf 49 42 5b be
       -0.042777162 -0.10933996 -0.6205837 -0.21412005
000350 32 4a 67 3d 1e 35 12 3e 40 67 cf 3d 26 8e 7f 3e
       0.056467243 0.14278075 0.10127115 0.24956569
000360 fb a5 06 3f d2 68 88 3d 9d b8 6f be 62 6b ca bc
       0.52597016 0.06660618 -0.23410268 -0.024709407
000370 69 6d 48 be 53 fc dd 3d 9c 85 8b 3e 3b af 2e be
       -0.19572987 0.10839143 0.27250373 -0.17059033
000380 fe 7a 2a 3d b2 a0 b6 3e 3d c9 31 be 96 8a 98 3e
       0.0416212 0.35669476 -0.17361923 0.29793233
000390 ef ad 9a 3c 18 ea 6c 3c 65 78 8e be f4 35 ef 3d
       0.018881766 0.014460109 -0.2782623 0.116802126
0003a0 96 18 47 bd bf 34 6d bf b9 bf 7a 3d 3c f1 95 3d
       -0.04860743 -0.9265861 0.061217997 0.073214024
0003b0 19 be bd 3e d6 cf 6f be 39 8d 77 bd c9 cd 2a 3d
       0.37059096 -0.23419127 -0.060437415 0.04170016
0003c0 fe 2f 7c 3c a3 7d 2f 3e 4e 23 af 3e 49 ab 66 bd
       0.015392302 0.1713777 0.34206623 -0.056315694
0003d0 68 6e 1b 3e e2 80 8c 3e f8 73 7d 3e 31 94 9e 3b
       0.15178835 0.2744208 0.2475127 0.004839443
0003e0 4b 1a 36 3e e2 aa b7 3e 50 c5 2b 3e 86 3d 34 be
       0.17783467 0.3587256 0.16774487 -0.17601594
0003f0 cb bf 87 3e 7b 68 e3 3d f6 b9 69 3e df 25 05 3e
       0.26513514 0.111039124 0.22824845 0.13002728
