Brains/ColourSort.onnx (onnx, 329491 bytes, 9 tensors)

action_model._discrete_distribution.branches.0.bias f4 [2]
000000 f5 fc 6e be fb fc 6e 3e
       -0.23338683 0.23338692

action_model._discrete_distribution.branches.0.weight f4 [2, 256]
000000 be d5 67 3c 62 46 f9 bd 75 13 3f bd b0 d6 0b be
       0.014150081 -0.121716276 -0.046649415 -0.13656116
000010 58 5f c5 bd 71 09 d5 bd 65 70 2b 3d 5d e9 17 3a
       -0.09637326 -0.104021914 0.041855235 0.0005794967
000020 68 4b 2a bd 6b 9e 9b bd 2c 8d 06 be 08 fd 32 be
       -0.04157582 -0.07598575 -0.1313979 -0.17479336
000030 e3 01 2a be 2a 38 84 3b 8c fd 17 bd 79 f5 07 bb
       -0.16602282 0.0040350156 -0.037107036 -0.0020745678
000040 03 88 ee 3d 0f b9 aa bd ad 66 b8 bc 8b 54 c4 bd
       0.11647036 -0.083360784 -0.022509897 -0.09586438
000050 ae b7 a2 bc fa 14 8c bd eb ae 98 3d c8 f0 6c bd
       -0.019862976 -0.068399385 0.07455238 -0.057846814
000060 59 81 2a 3e 91 01 3f be f9 b5 f2 bd 13 9b df bd
       0.16650905 -0.18652941 -0.11851115 -0.1091825
000070 73 12 21 be 13 25 92 3d 93 54 26 3b 89 22 80 3c
       -0.15729694 0.071359776 0.002538 0.015641468
000080 cf 0e 3e be 2f 2e 59 be 84 36 ff bd 48 96 cb bd
       -0.18560337 -0.21209024 -0.1246157 -0.09940773
000090 df 48 2c be f3 aa 8f be 44 65 5e bd eb 49 93 bb
       -0.16824673 -0.2806011 -0.054295793 -0.0044948957
0000a0 9f cc e7 bd d3 42 69 3d 0a c4 98 3d 7a 39 93 bc
       -0.11318325 0.056948494 0.074592665 -0.017971743
0000b0 fe 2b 73 3d 9e e9 d7 bc da e8 25 bd d7 68 1e 3e
       0.059368126 -0.026356515 -0.040505268 0.1546968
0000c0 2a ae 25 be b1 f5 1b 3b 91 d1 42 b9 23 db 9a 3d
       -0.1617972 0.0023797567 -0.00018579351 0.07561328
0000d0 ba d4 41 bd 80 96 bc bd b6 ed 8c bc 1a 01 fe bd
       -0.047322012 -0.09208393 -0.017203193 -0.12402554
0000e0 83 18 25 3d 0e 98 a8 bc c1 88 87 be d1 67 21 3e
       0.04030658 -0.020580318 -0.26471522 0.15762259
0000f0 b1 f5 b2 bd c2 a2 09 3e 57 7c e2 bd c7 14 7a bd
       -0.08738268 0.13440993 -0.11058872 -0.06105497
000100 04 60 8b bd 40 d9 e4 bd 9c 1b c1 bd 8f 5e 85 3b
       -0.06805423 -0.1117425 -0.09429094 0.00407011
000110 a8 ec f6 bd ad 7e 04 3c e1 01 92 be 54 88 61 3c
       -0.12056857 0.0080868425 -0.28517058 0.013765413
000120 72 66 41 3d 00 91 5c be ed e5 f7 bd f1 f3 1a be
       0.04721684 -0.21539688 -0.12104402 -0.15132119
000130 f3 1e 6b 3c 50 c0 d6 bd 0d 7c ee bd 67 33 0e bb
       0.014350641 -0.104858994 -0.116447546 -0.0021698119
000140 99 53 8d bd fe 0c 6f be f1 82 12 be 74 f6 8a bd
       -0.069007106 -0.233448 -0.14307763 -0.067852885
000150 ec b7 be bd 7a b5 e6 bd a2 bc 71 be c2 f5 e8 3d
       -0.09312424 -0.11265083 -0.23607114 0.113749996
000160 59 dd 60 be 36 24 0f be 4e a5 ca bc 06 e9 1a be
       -0.21959437 -0.13978657 -0.024737027 -0.15127954
000170 e1 9c 9b bd bd ce 99 bd 4c df 37 be e2 78 02 be
       -0.07598282 -0.07510135 -0.17956275 -0.12741426
000180 d4 f9 30 bc b1 22 d2 bd 02 20 1a bd 5f 16 bb 3d
       -0.010801751 -0.10260523 -0.03762818 0.09135126
000190 98 d2 7d bd eb f4 5d 3e 79 5a b7 3c e8 d7 dc 3d
       -0.061968416 0.2167546 0.022382008 0.10783368
0001a0 30 5e 19 be 61 33 89 bd 3b 9b e6 bd 2e 3a 9b 3d
       -0.14977336 -0.06699253 -0.112600766 0.07579456
0001b0 e4 41 8d bd 84 44 cb 3d 2a 52 7b bd b4 00 87 3d
       -0.06897333 0.09925178 -0.061357655 0.06591931
0001c0 ac 6e a2 3c d3 63 be bd 6b 64 2a 3b f6 38 c0 bd
       0.019828163 -0.09296384 0.0025999795 -0.093858644
0001d0 f7 22 78 bc f8 cd b0 3d f9 88 80 bc 3b fb 94 bd
       -0.015145055 0.086330354 -0.015690314 -0.07274481
0001e0 19 d6 61 bd 90 ce 3a bd f2 fc 8a 3c 85 ce 3e 3d
       -0.05513582 -0.04560715 0.016966317 0.04658367
0001f0 69 bc 84 3d 56 f8 05 be 62 1f e1 bd 82 e1 08 bd
       0.06481249 -0.13083014 -0.10992314 -0.033418186
000200 df d4 f6 3d bb ac 89 3d 4e 0e 18 bd c3 c4 51 3d
       0.12052321 0.06722399 -0.037123017 0.051213037
000210 bb a8 0e be bf 9f 99 bd b9 44 d8 bd 40 56 e0 3d
       -0.13931553 -0.07501172 -0.10559983 0.10953951
000220 28 79 51 bc 28 28 57 be 38 45 38 be 33 85 c3 bd
       -0.012785234 -0.21011412 -0.17995155 -0.0954689
000230 b1 3d 31 be c7 30 d2 bd ef 85 71 be b4 47 04 be
       -0.1730869 -0.1026321 -0.23586248 -0.12917978
000240 99 93 ee 3d 58 36 01 be 52 8a 3f be b0 42 a3 bd
       0.11649246 -0.12618387 -0.18705109 -0.07971704
000250 79 3f 21 3d c9 fd 61 bd 52 cc 55 bc ca 84 f0 3c
       0.039367173 -0.05517367 -0.013049202 0.029360194
000260 09 d3 44 3d 77 e9 f7 3d 7a 20 18 3e df 72 de bc
       0.04805282 0.12105077 0.14856139 -0.027154384
000270 20 63 1a be b1 b9 12 be 3b a8 cb bd d8 8a c1 bd
       -0.15076876 -0.14328648 -0.09944197 -0.094503105
000280 55 0c 85 be 03 22 d9 3d c5 01 19 3d b5 fc ef 3d
       -0.2598597 0.1060219 0.037355203 0.11718122
000290 18 93 f6 3c 3a 4d 19 be cc 27 f9 bc 09 cd e0 bd
       0.030099437 -0.14970866 -0.030414484 -0.10976607
0002a0 9d 7c 00 3e c3 cc 79 bd fd ae 02 be 17 3c 0b 3d
       0.12547536 -0.06098629 -0.12762065 0.033992853
0002b0 95 e0 46 bd bf d1 8b 3e c8 be 4f bb c9 04 3c be
       -0.048554022 0.2730846 -0.0031699408 -0.183612
0002c0 28 88 bd bc 83 25 65 3d f3 19 81 be cf d5 53 be
       -0.023136213 0.055943977 -0.2521511 -0.2068703
0002d0 74 8c 01 3e aa 02 2c bd 2c 76 3e bd 9a ab 12 3c
       0.12651235 -0.04199473 -0.046499416 0.008952046
0002e0 fd 6c eb bc 90 f5 ae bd d1 77 97 bd 79 0e 3f be
       -0.028738493 -0.08542931 -0.073959 -0.18657865
0002f0 ed 1d 09 be a3 e2 80 3d dd a7 02 be ad ab 99 3d
       -0.13390322 0.062932275 -0.12759347 0.07503448
000300 6e c7 32 be a5 40 2b bd f6 2c 07 be 19 a3 03 be
       -0.17458889 -0.041809697 -0.13200745 -0.12855186
000310 8b d7 36 be e5 e0 d9 3d 3c 27 f8 3c 4b ba d0 3d
       -0.1785566 0.10638598 0.030292146 0.101917826
000320 97 a8 22 bd 6e ab 8a bd 47 1d ca bd 36 e9 13 3d
       -0.03971156 -0.06770979 -0.098688655 0.03611108
000330 7e a0 a6 3c 5e 20 fa bc 70 87 5d bd f9 44 78 be
       0.0203402 -0.030533012 -0.05408424 -0.24245061
000340 51 c4 ef bc ed 63 a0 3c e6 ad 35 3d 1b 34 a2 bd
       -0.029268416 0.019578898 0.044355296 -0.079200946
000350 59 89 cb bd d1 14 0b bd b7 6a 2c bd 58 ca 11 bd
       -0.09938306 -0.0339554 -0.04209396 -0.03559336
000360 c3 ef f9 3d 3a d2 bb 3c 07 dc 20 be 4d 6c ce 3d
       0.12203934 0.022927392 -0.15708934 0.100792505
000370 7a 6c 6b bd 3b a1 ce bd 56 0f 0f bd 7b 6b c0 bd
       -0.0574765 -0.10089346 -0.034926735 -0.093955
000380 0c b1 ae bd 19 93 6d be 99 d5 c2 bd 57 f6 be be
       -0.08529863 -0.23200645 -0.09513397 -0.37297317
000390 36 65 bc 3d af 68 68 3d fc bf e2 3c d3 77 2f bd
       0.09198992 0.05674046 0.027679436 -0.042838883
0003a0 9f 19 3f 3d 06 98 bd bd 81 68 ec bd 81 c7 e1 bc
       0.046655294 -0.09257512 -0.1154337 -0.027560951
0003b0 9c 9e c3 bb c2 0d 11 be d3 84 9c 3d 66 12 1d be
       -0.0059698354 -0.14165404 0.07642522 -0.1533905
0003c0 97 9c ff bd 1f c4 a3 bd bd f6 c9 bd da e2 66 be
       -0.12481039 -0.079963915 -0.09861515 -0.22547475
0003d0 b8 ce 63 3d 17 d3 06 3e 89 fb 8f bd 5c cf 2e 3d
       0.055617064 0.13166462 -0.070303984 0.042678222
0003e0 24 db 98 3d d5 e3 c3 be d7 54 72 be 68 aa 78 bd
       0.07463673 -0.3825976 -0.23665176 -0.060709387
0003f0 1d 2f 7a bd ae 9f f7 bd 0f 01 22 bd 94 ba b6 bd
       -0.061080087 -0.12091003 -0.03955179 -0.08922306

action_model._discrete_distribution.branches.1.bias f4 [3]
000000 1e 07 f9 bd d7 f5 b5 bc 5c 8d 19 3e
       -0.121595606 -0.022211952 0.1499533

action_model._discrete_distribution.branches.1.weight f4 [3, 256]
000000 bd 17 08 bd bf f8 8f 3c 2d 2e 4d bc ad 71 39 3d
       -0.033225764 0.017574666 -0.012523216 0.045274425
000010 97 55 47 3d ed 02 39 3c 7a 2c eb bb 67 fa e2 bb
       0.04866561 0.0112922015 -0.007176933 -0.006926823
000020 38 44 43 bd 66 1c c2 3d f9 a1 21 3d e5 16 95 bc
       -0.04767248 0.09478073 0.03946111 -0.018199394
000030 74 3a 8b 3c b5 03 38 3d f6 7f bb 3c 55 74 2a bd
       0.016995646 0.04492541 0.022888165 -0.04161485
000040 7f ca 91 3c ea e9 4a 3e c9 04 22 bd 02 28 a2 3d
       0.017796753 0.19815794 -0.039555345 0.07917787
000050 3d d2 c4 bd 80 44 fe bc 5c 05 5b bd 11 53 e8 3d
       -0.09610412 -0.031038523 -0.053471908 0.11343969
000060 fe b4 81 3c 98 bf 7d bd 31 c6 45 be f9 3c 1f 3d
       0.015833374 -0.061950296 -0.19313885 0.038876507
000070 fc fa 03 bd d8 d5 a5 3c aa 9a 49 3e 42 0d fb 3c
       -0.03222178 0.02024357 0.19687906 0.03064597
000080 d0 7a 52 3d 45 6b b0 3d b3 f4 cc b9 f8 29 c0 3d
       0.051386654 0.0861421 -0.00039092227 0.09383005
000090 40 69 91 3d 5d 6f 07 3c 0b e7 39 be e7 6f b7 bd
       0.07100153 0.008266297 -0.18154542 -0.089568906
0000a0 4c fb 89 bd e0 55 0b be 3e 5b 1d 3e 3a d7 c2 3d
       -0.06737384 -0.13606977 0.15366837 0.095137075
0000b0 54 a9 99 3d e8 ec 04 3e 44 6d 38 3d d8 c5 82 3d
       0.07503 0.12980998 0.04502608 0.06385392
0000c0 06 07 49 3a 95 03 11 3c 65 19 8a 3d 95 e5 b9 3d
       0.0007668588 0.008850952 0.06743125 0.090769924
0000d0 ca da 18 bd 56 f4 61 bc 21 04 03 3c 5e 45 82 bc
       -0.03731803 -0.013791164 0.00799659 -0.015902217
0000e0 4a 07 56 bd 10 25 62 bc 47 96 88 3d 74 68 f4 bd
       -0.052253045 -0.013802782 0.06669288 -0.11933985
0000f0 24 31 ac bb 99 8f 24 3e 04 78 12 bd 65 dc 41 3c
       -0.0052548815 0.16070403 -0.035758987 0.011832331
000100 d8 15 02 be 96 aa 7e bc 4c fe 0a be 4e 82 c3 bc
       -0.12703645 -0.015543601 -0.13573569 -0.023865845
000110 fd 6e 15 3d 0f a9 08 3d c7 15 c1 bc 96 90 8e bd
       0.0364828 0.03336435 -0.023569955 -0.06961171
000120 be dd ac bc 1b e6 02 bd 5a 4a ea bd 69 8f 8d bc
       -0.021101829 -0.031957727 -0.11439963 -0.017280297
000130 e5 7a b5 bc ca c4 35 bd 26 37 6c bd 4f 27 ac 3d
       -0.022153327 -0.044377126 -0.05766978 0.08405935
000140 6d 36 b7 3d 93 04 ef bb 14 a9 d1 bc ee e8 3c bc
       0.08945928 -0.0072942465 -0.025593318 -0.011530144
000150 60 81 85 bd 8b ab db bc 34 25 5a 3c e6 50 23 3e
       -0.06518817 -0.026815196 0.013314534 0.15948829
000160 d3 77 bd bd 94 90 cc bc c1 e3 e4 bd 4b cf 00 bd
       -0.0925137 -0.024971284 -0.11176253 -0.03144769
000170 45 d5 7b bd 61 7b 80 bd cb b6 15 3e 67 90 87 bd
       -0.061482687 -0.06273533 0.14620511 -0.066193394
000180 77 85 0c be 4d 6e ac 3c fb f4 c7 3c bd e4 ae 3c
       -0.13722788 0.02104869 0.024408808 0.021349305
000190 f0 3d 99 bb cb 6e 25 3e a3 8a 9c bd f0 8b 7a 3c
       -0.004676573 0.16155545 -0.0764363 0.015292153
0001a0 cf dc de bd aa ee 31 3e 01 06 49 3e fa d7 ed bd
       -0.1088196 0.173762 0.19631197 -0.1161346
0001b0 a5 0e ce bc 78 e2 1d 3d 93 81 de bc fa 86 13 3e
       -0.025153467 0.038546056 -0.027161395 0.14406958
0001c0 e7 4e 35 bd 66 74 ca 3d 8f e6 03 3b fa ec 83 bd
       -0.0442647 0.098854825 0.0020126437 -0.06441684
0001d0 f5 f2 d5 3d 47 08 7d bd 41 b3 c2 3c d6 6c 15 3e
       0.10446731 -0.061775472 0.023767116 0.14592299
0001e0 1c b5 ed 3d 49 44 18 3d 51 d8 d9 ba 1e 5d c0 3c
       0.116068095 0.037174497 -0.0016620253 0.023481902
0001f0 7f 21 90 3e 40 61 38 3d b3 b1 ab bd 60 49 f5 3c
       0.28150555 0.04501462 -0.08383503 0.029942214
000200 98 2c 16 3d 15 e6 73 be ff 34 b4 3a 59 3a 62 bd
       0.03666362 -0.23818238 0.0013748704 -0.055231426
000210 9a b0 c9 bc b6 3f 93 bd 44 be d7 3d 24 f4 c9 be
       -0.024620343 -0.07189886 0.10534337 -0.39444077
000220 71 2f 1e 3e de 37 47 3c 90 9b 3d 3d bf 9c f0 bd
       0.15447785 0.012159316 0.046290934 -0.11748647
000230 d4 f8 1a 3e 66 87 1a bd 62 6e 9f 3d 45 d9 f1 3c
       0.15133983 -0.037726782 0.07784726 0.029522547
000240 9c f7 5f 3e dc 30 89 3a 7b be 0e 3e 42 0b a0 3c
       0.21871799 0.0010466832 0.1393985 0.019536618
000250 74 52 3d 3e 84 ae dd 3c 48 e2 97 3d 15 99 4d 3d
       0.18488485 0.027060755 0.074162066 0.05019482
000260 a7 11 8b 3d 84 95 64 3e 54 23 f1 3d cb ab b5 3d
       0.06790476 0.2232266 0.117743164 0.088706575
000270 77 3e f6 bc 52 3f 6a bd 46 6e 1e 3c f1 8b 57 3e
       -0.030059082 -0.057189293 0.009669846 0.21049477
000280 a0 af 0a bd 92 8d 40 3e 2e 2d 7d bd c1 5a e2 3d
       -0.033858895 0.18804005 -0.061810665 0.11052466
000290 ca f8 02 be f4 67 f5 bb 63 5b 89 3d 7c 62 b5 bd
       -0.12790218 -0.007489199 0.06706884 -0.08856675
0002a0 6d aa e6 3d 48 5a 34 be 14 51 91 bd 1d 2f a8 bb
       0.11262975 -0.17612565 -0.070955426 -0.0051325695
0002b0 b7 d1 3d 3d af 12 6a 3d 83 c3 3a bb 00 72 08 be
       0.046342578 0.057146724 -0.0028497882 -0.13324738
0002c0 f1 f6 35 3e b1 0c b9 bc b3 ed f8 bc 52 8a 87 bc
       0.17769982 -0.02258906 -0.030386781 -0.016545448
0002d0 f8 2a a2 3b f2 2f 71 3c a6 90 ee 3d 5b 3f 15 bd
       0.00494897 0.014720904 0.11648683 -0.036437374
0002e0 79 cf a9 3c 6d 46 f6 bc b1 a0 e1 bd 1e f0 8c 3d
       0.020728813 -0.030062879 -0.110169776 0.06881736
0002f0 3f 79 10 bc 0e 19 13 3d 36 0b d5 bc 08 75 44 3c
       -0.00881797 0.035912566 -0.026006322 0.011990793
000300 67 83 79 3c 33 41 4f 3e 46 ff 33 bd a0 1a aa 3c
       0.015229083 0.20239715 -0.04394462 0.020764649
000310 2e 21 0a 3d 55 b4 9c 3d eb 39 15 3e 04 fb 02 bd
       0.03372305 0.07651583 0.14572875 -0.03197767
000320 1c d5 a7 3c f9 6d 05 be 64 2e 9e 3d a6 1c e8 3d
       0.02048736 -0.13030232 0.07723692 0.11333589
000330 35 9a e0 bd 35 7e 45 bd 7a 68 a2 3a e4 f0 83 3c
       -0.10966913 -0.048216064 0.0012390756 0.016106077
000340 35 1a 2a be 28 07 c7 3d 8f bb 98 3d e7 e2 43 bd
       -0.1661156 0.09718162 0.07457649 -0.047823813
000350 f4 01 35 3d d9 a6 0b 3d c5 8b 98 bc cd df 8d 3d
       0.044191316 0.034094665 -0.018621335 0.06927452
000360 67 a9 64 3d 15 bd b4 bd 4b 7b 76 bd 73 3c d1 3d
       0.055825617 -0.08825127 -0.060176175 0.10216608
000370 5b 0d 87 bd 9a 41 16 bd 07 be c2 3d 0a c2 ad 3c
       -0.06594344 -0.036683656 0.09508901 0.02121069
000380 0d 08 bc bd 8b e4 90 bd 00 80 57 bd 1b 35 0c 3e
       -0.09181223 -0.07074841 -0.052612305 0.13692133
000390 4e 0c cc 3c 2e dd b9 bd b5 2e d0 bc f0 cd 95 3e
       0.024908211 -0.0907539 -0.025412897 0.2925868
0003a0 79 e4 0d 3e 8b bd 41 3e da 1f a5 bd 8c 6e bb 3c
       0.13856687 0.18919961 -0.08062716 0.022879861
0003b0 75 74 9f 3d ec e2 3b bd 30 4d 46 be 3a 27 08 3d
       0.07785884 -0.045870706 -0.19365382 0.033240534
0003c0 72 8e c6 bd 93 e2 ae bc ec 78 b0 bd 3f a2 7c bd
       -0.09695138 -0.021348273 -0.08616814 -0.061678167
0003d0 bf a5 a1 3d 8d ae 28 3d 87 e8 9f 3c 90 62 21 3e
       0.07892942 0.04118209 0.019520057 0.15760255
0003e0 34 48 93 bc fe ed f7 3d 72 2a 93 bd f8 7a 7b 3d
       -0.017978765 0.1210594 -0.0718583 0.06139657
0003f0 6a 10 42 3e b8 ba 43 3d 19 a4 14 3b f1 be 60 bd
       0.18951574 0.04778549 0.0022680818 -0.054869596

discrete_action_output_shape f4 [1, 2]
000000 00 00 00 40 00 00 40 40
       2.0 3.0

network_body._body_endoder.seq_layers.0.bias f4 [256]
000000 7a 3d d6 39 e5 29 e0 3c 07 90 0d 3d 4e 69 3a 3d
       0.00040863064 0.027363727 0.034561183 0.045510583
000010 f5 1e cb be ec 05 39 be a1 58 c1 3d 4b 80 4a be
       -0.39672056 -0.18068665 0.09440733 -0.19775502
000020 f4 74 a5 3c a0 25 cc bd 5c ca b3 bd 9a 18 e6 bd
       0.02019737 -0.09968114 -0.08778831 -0.11235161
000030 10 2b be bd 61 6a 17 be 1f 9d 81 3d 4b 38 60 3d
       -0.09285557 -0.14786674 0.063287966 0.054741185
000040 02 59 39 be c5 84 64 be b9 52 ca bb 2e 47 35 be
       -0.1810036 -0.22316273 -0.006174412 -0.17702934
000050 9a bc 16 3d f0 9c a5 be 9f fc 86 be 53 27 c7 bc
       0.03680096 -0.32346296 -0.2636461 -0.024310743
000060 c4 da 2a be e3 e8 69 3d 7e b7 21 be 9c 1d 82 be
       -0.16685015 0.057106864 -0.15792653 -0.25413215
000070 23 85 67 be 04 fe 0b be 33 58 10 3d 6a e7 c4 bc
       -0.22609381 -0.13671118 0.035240363 -0.024036128
000080 ab a2 4b 3e e4 d3 2d bc 89 2b b2 3d 5a de d6 3a
       0.19886272 -0.010609601 0.0869971 0.001639317
000090 f7 f5 0e bd 81 98 4e 3c e4 08 18 be 6f 08 2a be
       -0.03490254 0.012609602 -0.14847142 -0.1660478
0000a0 47 63 54 be 38 3a 81 bd a1 5c 0b 3d 5b c2 1c be
       -0.20740996 -0.063099325 0.034023885 -0.15308516
0000b0 65 f1 8d 3d 8d cd 4e be 8d ae 70 be c9 fe b4 bd
       0.06930808 -0.20195599 -0.23504086 -0.08837659
0000c0 aa 35 ce bd 1d ca 88 be e4 6b 37 bd ed 2e 40 be
       -0.10068829 -0.267167 -0.044780627 -0.18767901
0000d0 2e 3a cf bd b3 d3 93 be 10 50 74 be 1d 8e 4b be
       -0.10118519 -0.2887245 -0.23858666 -0.1987843
0000e0 63 a7 bc bd 22 53 25 be e1 fe 80 bd 74 05 93 be
       -0.09211614 -0.16144994 -0.06298614 -0.28715098
0000f0 24 6f 63 be 8e 64 48 be d4 7c f0 bb 91 f0 87 be
       -0.22210366 -0.19569609 -0.0073390994 -0.26550725
000100 8f 41 45 be 40 8d 83 be c5 51 75 be 04 c4 0e bd
       -0.1926329 -0.25693703 -0.23956974 -0.034854904
000110 05 5d 64 be cd 12 2c bd 1a 72 98 bd 65 1d 99 be
       -0.22301109 -0.042010117 -0.07443638 -0.2990524
000120 a2 b7 48 bd 50 33 13 be aa 20 63 bd 58 43 b6 bd
       -0.04900325 -0.14375043 -0.055451073 -0.088995636
000130 d5 6c c1 3d 99 c3 99 bd 5c 9e 37 be a4 84 2a be
       0.09444586 -0.075080104 -0.17931503 -0.16652161
000140 16 b2 e3 3d bb 68 93 bd e2 73 a1 3d 47 07 ba 3d
       0.111179516 -0.0719771 0.07883431 0.09083419
000150 ff a1 90 be 1c 00 96 be 65 b3 e3 3d 5b 38 53 be
       -0.28248593 -0.29296958 0.11118201 -0.20626967
000160 51 78 5f be 04 ff 10 be cb 0a 80 be 9f e0 33 3d
       -0.21823241 -0.1415978 -0.25008234 0.043915387
000170 53 39 75 be 82 8f 0e 3d 50 51 8c 3d 68 fd 5d 3d
       -0.23947649 0.03480483 0.06851447 0.054196745
000180 6d 1a 3d be 1b b9 03 be 5a 25 63 be 09 1a 19 be
       -0.18467112 -0.12863581 -0.22182217 -0.14951338
000190 15 d0 2d be 8b 16 a7 be d9 40 81 be bb a2 19 be
       -0.16973908 -0.32634386 -0.25244787 -0.15003483
0001a0 a0 2c 3d be ea 38 a0 be 46 2f 9d be 20 7c 9d bd
       -0.18474054 -0.31293422 -0.3070013 -0.076896906
0001b0 03 66 98 be b7 fa 74 bd 22 bf 01 be 3a 1c 89 be
       -0.2976533 -0.059809413 -0.12670568 -0.26779348
0001c0 26 ac a8 bd 35 da 8a be 41 cb 82 3d 88 cf 0f be
       -0.0823596 -0.27119604 0.06386424 -0.1404401
0001d0 17 19 15 be ba ea 37 be f7 94 58 be d3 97 f7 3d
       -0.14560352 -0.17960635 -0.21150576 0.12089505
0001e0 60 f7 0b 3e f4 fb 89 bd 90 6d 3c be e9 02 41 bc
       0.13668585 -0.06737509 -0.1840117 -0.011780479
0001f0 cf 25 04 bd 64 cb 2a 3c c9 96 e5 bd b7 66 93 be
       -0.03226262 0.010424469 -0.112104006 -0.28789303
000200 6d 9a d5 bd 2b a1 43 be 55 f9 5e be b6 51 64 3e
       -0.10429845 -0.1910445 -0.217748 0.22296795
000210 5e b8 07 be 19 fb 04 bd 4e 55 53 3c 57 66 09 3c
       -0.13253924 -0.032466028 0.012898756 0.008386216
000220 fa 53 45 be 2e d7 6a be 42 5c 72 be 52 e7 77 be
       -0.19270316 -0.22933647 -0.23668006 -0.24209335
000230 d1 27 92 be a4 23 82 be 28 24 6c be 86 50 87 be
       -0.28546003 -0.25417817 -0.23060668 -0.26428622
000240 a5 0d 14 be 27 81 86 be 51 04 b6 be 11 ef 92 be
       -0.1445833 -0.2627041 -0.35550168 -0.28698018
000250 1d ac 18 bd 9f aa b3 be 01 7a f6 bd 1b 41 8e be
       -0.037273515 -0.3509111 -0.12034989 -0.27784047
000260 54 39 6e be 26 6f 81 be 35 33 46 bc c6 e4 90 be
       -0.23264056 -0.25280112 -0.01209717 -0.2829954
000270 17 d0 43 be e8 42 84 be 06 41 8f be e1 83 21 bc
       -0.19122349 -0.25832295 -0.27979296 -0.009858103
000280 8f cf 3e be 18 f0 5a bd 6d 43 0c be 27 17 81 be
       -0.18633865 -0.053451627 -0.13697596 -0.25212976
000290 1b 07 00 be 6f c9 96 be bc 25 6d be 9f 1b 42 be
       -0.1250271 -0.29450557 -0.23158926 -0.18955849
0002a0 df 56 14 be 5b cc c4 3c f9 85 88 bd 86 8a 2d 3d
       -0.14486264 0.024023226 -0.06666178 0.042368434
0002b0 82 b0 fd bc 6c 2c 83 be 5d 2a 8d be af 43 97 be
       -0.030967955 -0.2561983 -0.27571383 -0.29543826
0002c0 f4 0c 6a be 53 a3 15 be b6 e8 4e bd 65 91 29 be
       -0.22856504 -0.14613084 -0.0505149 -0.1655937
0002d0 f2 38 b8 bc d4 03 e1 3d fc 70 55 3d 1d 79 47 be
       -0.022488091 0.10987058 0.052109703 -0.19479795
0002e0 14 d8 61 be b0 2c 7d be 02 26 00 3d 41 92 27 be
       -0.22055084 -0.24724078 0.031286247 -0.16364385
0002f0 3f 8c 0c 3e 48 11 4c be 4e 3d 82 be 57 04 19 be
       0.13725375 -0.19928467 -0.25437397 -0.14943062
000300 e4 e2 52 be df 10 f8 bd e5 64 8b bd 6d ec 9c 3c
       -0.20594364 -0.12112593 -0.068063535 0.019155705
000310 fb ca ce bd 41 52 03 be cb 0b a8 bd fb 4f 2e be
       -0.10097309 -0.12824346 -0.08205374 -0.17022698
000320 7f 99 8b bd 5a 22 70 be 77 f6 3f be 44 07 51 be
       -0.068163864 -0.23450604 -0.18746363 -0.20412928
000330 ad 8a 0d bd d4 57 8e be a1 a9 27 be fd 60 00 bd
       -0.03455608 -0.27801383 -0.16373302 -0.031342495
000340 26 ae 8b be 7f 4e 0b be 29 fd 0d 3c 87 4b 50 be
       -0.27281302 -0.13604163 0.008666315 -0.20341311
000350 62 3b c2 3d d7 02 29 bd e2 62 f2 bd d7 58 04 be
       0.094839826 -0.041262474 -0.11835267 -0.12924515
000360 44 d9 a4 bb ca c3 3c be 79 e6 86 be b4 fa bd be
       -0.005030783 -0.18434063 -0.26347712 -0.37105334
000370 81 35 ca 3d eb e0 6c be ef c0 fa 3c 50 4e 61 bd
       0.09873486 -0.23132674 0.030609576 -0.055006325
000380 fb 04 6e 3d 9e c7 19 bd 67 22 de be 68 59 ad 3d
       0.05811022 -0.037543885 -0.43385622 0.084643185
000390 b6 6a 4b be 4d 65 3b be 58 ff 66 bd 14 9e 1b bd
       -0.19864926 -0.18300362 -0.05639586 -0.037992552
0003a0 80 e6 b6 be 98 da 02 3e 4f c3 08 3d 48 5f 9a bb
       -0.35722733 0.127787 0.033389386 -0.0047110654
0003b0 a2 8e 22 be 2c e9 7b 3d a6 7b 70 be 2e d2 c7 bd
       -0.15874723 0.061501667 -0.23484668 -0.097568855
0003c0 73 77 32 be 22 cb 37 be 5f 2f 55 be ad d3 33 3e
       -0.17428379 -0.17948583 -0.20818852 0.17561217
0003d0 c4 17 24 3e 63 ab b3 bc b1 77 24 3e 9c 7c 73 be
       0.16024691 -0.02193231 0.16061284 -0.23778003
0003e0 88 ec 55 be 5b 9a 8c be 3c 65 d1 3d f2 83 1d be
       -0.20891011 -0.27461514 0.10224387 -0.15382364
0003f0 c1 1c 12 be 7e 2b bc bc 8d 75 90 bd 18 1a 42 be
       -0.14268781 -0.022969957 -0.07053671 -0.18955266

network_body._body_endoder.seq_layers.0.weight f4 [256, 56]
000000 63 7f 29 3e 2a 33 b8 3f e8 81 d2 be e8 54 a2 3c
       0.165525 1.4390614 -0.41114736 0.019815877
000010 26 58 c9 3e 8e f6 9f bb 12 8c 00 3f 62 11 8f be
       0.39325064 -0.0048816865 0.5021373 -0.2794295
000020 a4 2a 93 3e 2b 19 28 3e 63 44 c9 be 2b e1 b3 3e
       0.2874347 0.16415851 -0.39309987 0.35132727
000030 5d 85 b6 3e 9b 9f 14 3c e4 23 14 3f c0 1b d8 be
       0.35648623 0.009071256 0.57867265 -0.42208672
000040 bb b4 38 3e dc 8a 9b 3e c2 91 e0 3b 23 06 7a be
       0.18037693 0.3037938 0.006853313 -0.24416403
000050 b2 8c c6 3c c1 e9 ca bd df df 30 3e 33 cd b6 be
       0.02423701 -0.09907866 0.172729 -0.3570343
000060 0a b7 d1 3e a0 24 02 3e 2e 93 08 bd 4e 61 0d 3e
       0.4095996 0.12709284 -0.033343486 0.1380665
000070 95 c3 e0 3d 0a 82 7f bd 3a 7c 0c be 0d 7e ea be
       0.10974804 -0.062379874 -0.13719264 -0.45799294
000080 0e d9 96 3e de 25 82 bd 3a 9e f1 3e 51 73 fe bd
       0.29462475 -0.06354879 0.4719103 -0.124243386
000090 78 a9 82 3c 2d 70 bc 3c 83 2a d0 3e 65 a2 c9 3d
       0.01594995 0.023002708 0.40657434 0.098454274
0000a0 fc 3f 3a be af 90 cf 3e 6b 8a 04 be 2d 48 a7 3c
       -0.1818847 0.40540072 -0.12943427 0.020420158
0000b0 5a 54 46 3e 08 61 e0 3d 2a 82 80 3e c1 91 17 3d
       0.19368115 0.10956007 0.25099307 0.037004236
0000c0 b2 b7 bb bc 85 dc 27 3d 0a 76 1e 3e 85 f4 dd 3d
       -0.022914741 0.04098179 0.15474716 0.10837654
0000d0 76 46 48 3c 48 26 f8 3e cc 16 20 be 5c e3 24 3d
       0.01222383 0.48466706 -0.15633696 0.04025589
0000e0 62 b6 4a 3d eb d4 6a 3f e4 7c 05 bf 0d 05 f2 be
       0.04949034 0.9173114 -0.5214369 -0.47269478
0000f0 bc 33 f1 3d fa e9 30 3b da 3a 9d be 51 df ca 3e
       0.11777446 0.002699493 -0.30708963 0.39623502
000100 6c f1 0e be 29 20 e3 3e 56 5d b8 3e fe f2 60 3f
       -0.13959283 0.44360474 0.3600871 0.87870777
000110 fc 3d d9 be 42 6a ff be 2a 64 fe b9 ee b2 02 be
       -0.42430103 -0.49885756 -0.00048521283 -0.12763569
000120 dc 2a 2c bf 63 b4 2d 3e 04 9a 11 be c5 9d 64 3e
       -0.672529 0.16963343 -0.14218909 0.2232581
000130 cb 59 a0 3d 81 e3 78 3f 5e 89 1e be b9 83 61 3d
       0.07829627 0.97222143 -0.15482089 0.05505726
000140 4f 46 02 be b1 0c 9c 3e 1d 40 00 bf 75 16 b1 bb
       -0.12722133 0.30478433 -0.5009783 -0.0054042884
000150 f2 a1 6d be 17 71 f5 bd 29 e1 a2 bd 15 78 6c 3f
       -0.23206308 -0.11984461 -0.07953102 0.9237073
000160 5f 66 12 bd 19 30 2c bf 93 cd f1 bc aa c8 5e 3e
       -0.03574216 -0.6726089 -0.02951697 0.21756235
000170 f6 7b e6 3d bc 95 56 be 78 98 ef bd 3f fb e7 3e
       0.112541124 -0.20955557 -0.11699003 0.45308873
000180 1c 20 ec be ae 07 c5 3d ab 22 9c 3e c3 92 9e bd
       -0.46118248 0.096206054 0.304952 -0.07742836
000190 32 20 00 3e 74 73 3e 3e 71 58 48 3d 19 df a6 bd
       0.12512282 0.1859873 0.04891247 -0.08148021
0001a0 88 d2 4c 3e a0 8e 9f 3d 70 66 61 be 90 7e 1c 3d
       0.20002186 0.077908754 -0.22011733 0.038206637
0001b0 9c 3b 82 bd 7d 88 3b 3f 72 1f b3 3c 06 16 89 3e
       -0.06359026 0.7325514 0.02186558 0.26774615
0001c0 c7 3a 1a bf c2 d9 23 bf 51 ea ff 3e c8 c6 25 3e
       -0.6024594 -0.6400415 0.49983457 0.1618911
0001d0 4c 2a 7e 3e 85 1c af be 18 02 f5 be 84 00 5a 3f
       0.24820822 -0.34201446 -0.4785316 0.85157037
0001e0 b5 4a f8 3d c7 4a 34 3e 62 d0 e0 3d bb 20 67 3e
       0.12123624 0.1760665 0.10977246 0.2257108
0001f0 3f fc 02 3e 04 de a9 be 57 96 b5 be a8 b8 98 3b
       0.12791537 -0.33177197 -0.35466263 0.0046606846
000200 93 a8 20 be e7 16 55 3d 3f a8 9b 3e 5d 5f fa 3d
       -0.15689306 0.052023795 0.304018 0.1222522
000210 82 66 6d 3e 40 87 d5 be 12 f6 42 3e 5d df 2a 3e
       0.23183635 -0.4170475 0.19039181 0.16686769
000220 21 cd 83 be 56 fa c3 be 91 2a 86 3f 3c 61 83 3d
       -0.25742438 -0.3827693 1.048174 0.0641503
000230 ee 75 02 3d 19 83 8c 3e ff 52 48 be fb 9a 38 bf
       0.031850748 0.2744377 -0.1956291 -0.7211148
000240 e8 95 4b 3e cb 75 bf 3e 05 d4 ba be 00 85 92 3e
       0.19881403 0.37394556 -0.36489883 0.28617096
000250 e3 aa 37 bd 1e ad 83 3d 7b 00 87 3d 97 d0 48 bd
       -0.044840705 0.06429504 0.065918885 -0.04902705
000260 0a be 4b be 8c ff 87 bc 08 00 21 3e 1b 8f f2 bd
       -0.19896713 -0.016601346 0.15722668 -0.118437015
000270 e3 51 1e be 3b c5 4a be 6b ef f2 3c bb 94 48 bd
       -0.15460925 -0.198018 0.029655179 -0.048969965
000280 b9 f1 ff 3c 80 c8 de 3d b3 de 52 be 38 bb ed 3c
       0.031243192 0.10878086 -0.20592766 0.029019937
000290 74 5b dd 3d f1 f3 36 3f 98 5b 28 be 2d 24 51 3e
       0.10808459 0.71465975 -0.1644119 0.20423956
0002a0 2a 0d b2 be 7e 15 05 bf ae c2 02 3f 2e 90 c7 3d
       -0.34775668 -0.5198592 0.5107831 0.09744297
0002b0 38 ea 0b 3d 75 01 a4 be e9 16 07 3f c4 5e bf 3e
       0.034158915 -0.32032362 0.52769333 0.37376988
0002c0 12 19 60 be 99 c3 f1 bd 77 6f 68 3e 25 f0 23 be
       -0.21884564 -0.118048854 0.2269877 -0.16009577
0002d0 26 a8 33 3d 50 b4 52 3d 7a 5b 28 be 60 65 a8 bd
       0.04386153 0.05144149 -0.16441146 -0.08222461
0002e0 bd ae ad 3f 1e 8b ba bd ea 1d 6d be 2e a4 0d be
       1.3568951 -0.09108566 -0.23155943 -0.13832161
0002f0 f8 c8 48 3e 9c d8 56 3e be 2b d1 3d 9f 11 1e bd
       0.19607913 0.20981067 0.10213421 -0.038591024
000300 5d 20 96 be 63 4b d4 bc 81 c2 b7 3f b5 c9 bc bd
       -0.29321566 -0.025914853 1.4356233 -0.0921816
000310 2d cd ab be d9 44 27 3e 2e d3 98 be be 80 51 bf
       -0.33554974 0.16334857 -0.29848617 -0.8183707
000320 49 7c 93 3d ae 91 c4 3e b1 13 81 3b 65 dd b1 be
       0.0720144 0.38392395 0.003939115 -0.34739223
000330 23 04 ed bc 8a 65 35 3d 01 18 a4 3d 58 33 86 bd
       -0.028932637 0.04428629 0.08012391 -0.06552762
000340 32 c7 b7 be 1d bf 4d 3c 87 86 10 bd 19 31 99 be
       -0.3589416 0.012557772 -0.035284545 -0.2992027
000350 38 df 31 3e ca 43 2d be 6f 1d 28 3d b3 2b 8c be
       0.17370307 -0.1692039 0.041043695 -0.2737709
000360 bf 58 a5 bc be 3b 15 3e 63 90 ad bd 6c d8 26 be
       -0.020183919 0.14573571 -0.08474805 -0.16293496
000370 4d 72 b5 3e e4 ab 9c 3e 92 ab 05 be 13 04 09 bd
       0.35438767 0.30599892 -0.1305373 -0.03345115
000380 ca 2c d9 bc 92 9f 7d 3e ac f7 52 bf 49 2a 54 bd
       -0.026510615 0.24767902 -0.8240917 -0.05179814
000390 e6 0f 36 be 2a f4 5e 3d 99 dd fa bd d4 72 c3 be
       -0.17779502 0.05443207 -0.12249298 -0.38173544
0003a0 38 22 27 be 4e 30 28 be dc db fa be 7d 34 d2 3d
       -0.16321647 -0.16424677 -0.48995864 0.102639176
0003b0 78 c2 a3 be 42 43 f7 bd fc 37 95 3c ff 38 63 be
       -0.31984305 -0.12073375 0.018215172 -0.22189711
0003c0 38 db 51 be 65 29 d2 bd ce 51 dd be b1 da 8a be
       -0.20493782 -0.10261802 -0.43226475 -0.27119973
0003d0 e7 c7 d4 be 61 4c ef bd 43 6e 55 be 04 40 d6 3e
       -0.41558763 -0.1168449 -0.20842843 0.41845715
0003e0 98 d6 93 3e 8d 13 c2 bd 59 a4 23 be f0 6a 9d be
       0.2887466 -0.09476385 -0.15980662 -0.3074565
0003f0 b0 e0 57 be 1e 57 f3 be fb ff a8 be 33 2f 44 3d
       -0.21081805 -0.47527403 -0.33007798 0.047896575

network_body._body_endoder.seq_layers.2.bias f4 [256]
000000 ae ce 77 bc 08 3d 37 be d0 95 85 be c5 83 a1 bd
       -0.01512496 -0.17894375 -0.2609086 -0.07886461
000010 06 57 c7 be 2a 91 ba be 7e 17 81 bd f2 42 92 bd
       -0.3893358 -0.36438876 -0.06303309 -0.07141675
000020 21 f9 88 be 8f da 73 be a9 a3 05 3b cf 2b 3c be
       -0.2675257 -0.23813842 0.0020391739 -0.18376087
000030 c0 23 90 be 45 c2 a1 3c c2 75 1a be 95 07 0c 3d
       -0.28152275 0.019745955 -0.15083984 0.03418692
000040 8f 10 9f be 8b 2f 75 be f5 03 99 be e8 f6 a2 bd
       -0.3106732 -0.23943917 -0.2988583 -0.0795725
000050 d0 3c 69 be ee 42 ae be 3d f7 d2 3c 95 f3 8d be
       -0.22777104 -0.34035438 0.025752658 -0.277249
000060 15 b4 b0 bd 83 cf 0b be 8e 4a fd bd 71 63 41 be
       -0.08628098 -0.13653378 -0.12367736 -0.1888559
000070 c2 92 ac be ef 29 88 bd c6 eb 82 bd 32 77 db bd
       -0.33705717 -0.06648623 -0.063926265 -0.10716094
000080 d7 ec 7d bd 3d 21 5a bd c7 2b 88 be ac eb 8f bc
       -0.061993446 -0.053254355 -0.265959 -0.017568432
000090 64 54 b2 be 6e 66 bb be 8a de 68 be da b6 6e bd
       -0.3483001 -0.36601585 -0.22741142 -0.05827985
0000a0 05 57 6d be 9c 81 2a be 36 f0 97 be cc 7f 48 be
       -0.23177727 -0.16651005 -0.29675454 -0.1958
0000b0 f4 0d 89 bd d6 17 38 be 57 a2 bc bd ff 59 e1 bd
       -0.066921145 -0.17977843 -0.09210651 -0.110034935
0000c0 28 00 16 be 0f d4 dd bd e8 9a 22 3d 39 34 1e bd
       -0.14648497 -0.108314626 0.03969851 -0.038624022
0000d0 e8 6c ad be 50 20 77 be 4e 2a 13 bb 0e cd f5 bd
       -0.3387215 -0.2413342 -0.0022455635 -0.12002002
0000e0 4f 5e f4 bd cf d7 8f bd 25 c2 a7 be 5c 0f 30 bd
       -0.119320504 -0.07023584 -0.32765308 -0.042983398
0000f0 e1 8b a5 be d1 48 0c be 5f 93 cd be b9 10 56 be
       -0.32333282 -0.13699652 -0.40151498 -0.20904817
000100 9d 9e 07 be a0 14 8d be ca 15 4d be 68 e9 24 bd
       -0.132441 -0.27554798 -0.20027843 -0.040261656
000110 c7 55 a0 bd a7 55 d7 bd 88 7f 86 be f1 90 fe bd
       -0.07828861 -0.10514384 -0.26269174 -0.12429989
000120 c1 64 0c be 92 7f c1 be 05 24 2b be d3 74 9c be
       -0.1371031 -0.3779264 -0.16712959 -0.3055788
000130 07 04 b3 be 00 8a 58 be 6b 2f 63 be 52 bd 21 be
       -0.3496401 -0.21146393 -0.22186057 -0.15794876
000140 a8 2f 57 be 71 b8 8f be 6e 8f 1e be 5a 36 90 be
       -0.21014273 -0.28070405 -0.15484402 -0.28166467
000150 50 8c 08 be 8f 9b 73 be f7 f8 48 be 38 15 a5 be
       -0.13334775 -0.2378981 -0.19626223 -0.3224275
000160 69 1f 3a be df 6f e3 bd 92 a7 1f bc f7 61 5f be
       -0.18176045 -0.11105322 -0.009744542 -0.21814714
000170 87 18 29 bd bd 06 56 be 22 6a 09 be b0 65 43 be
       -0.041283157 -0.20901008 -0.13419393 -0.1908176
000180 dd b3 58 be db 43 4b be b6 de 6f be b0 03 df bd
       -0.21162362 -0.19850104 -0.23424801 -0.10889375
000190 8b 86 c1 be 28 2f 25 bd 74 18 c5 bd 9a 04 70 bc
       -0.3779796 -0.040328175 -0.09623805 -0.014649535
0001a0 ef 47 83 bd 58 b1 08 be f6 8b 96 be 3e 9c 2c bd
       -0.064102046 -0.13348901 -0.29403657 -0.04214119
0001b0 48 09 2e be db f1 fd bd c1 8a 6b be 38 ce 54 3d
       -0.16995728 -0.12399646 -0.23002149 0.051954478
0001c0 cf e1 aa 3d 0e c0 34 be 3b f8 92 bd 60 03 81 be
       0.08343851 -0.17651388 -0.071762525 -0.25197887
0001d0 87 09 35 bc 17 9d 0f be 1c 72 60 be 25 f9 a1 bd
       -0.011049635 -0.14024769 -0.2191853 -0.07908849
0001e0 bf 7f 71 be 44 18 b7 be 78 d0 8c be e0 ee bc bb
       -0.23583888 -0.357607 -0.275028 -0.005765781
0001f0 89 01 be 3d 19 a6 22 be 5b 34 fa bd c2 fe 05 be
       0.092776366 -0.15883674 -0.12217017 -0.13085464
000200 5e 7d b6 3d ab 72 06 bd 56 77 18 bd e1 70 c1 bd
       0.08910631 -0.0328242 -0.037223183 -0.09445358
000210 4b e4 d1 be e6 61 73 be 99 58 aa 3d 4e 62 57 bd
       -0.40994486 -0.23767814 0.0831768 -0.052583985
000220 a2 86 a7 be d3 2f 13 bb 31 95 ba bd f6 67 5c be
       -0.32719904 -0.0022458925 -0.09110487 -0.21524033
000230 61 b9 ba be e1 3d e0 be fa 1c 1f be 8f 80 8a bd
       -0.36469558 -0.4379721 -0.15538397 -0.06762802
000240 06 a3 5f bd bc de 0e be 6f c3 24 be 0a a3 11 be
       -0.05459883 -0.13952154 -0.16090177 -0.1422235
000250 50 81 6c be 9a ab b5 be f0 9e c9 bd 11 59 88 bd
       -0.23096204 -0.35482484 -0.09844768 -0.06657613
000260 7d 93 72 bc 42 94 b4 3b 85 64 ba bc 7c 3b 96 be
       -0.014805672 0.005510838 -0.02275301 -0.29342258
000270 36 b1 aa be 77 88 8b be e6 75 7d be b3 b9 6f be
       -0.33338326 -0.27252552 -0.24752006 -0.23410682
000280 34 dd ac be 6c c0 87 bd 21 1b 5e be a5 cc a9 bd
       -0.33762515 -0.066284984 -0.21690036 -0.08290986
000290 20 90 94 bd 90 a5 ac be b5 84 4f be db dd 8d be
       -0.07254052 -0.33720064 -0.20265467 -0.27708325
0002a0 a0 d1 1a bc 90 71 57 be c3 d2 c1 be fd 91 6e be
       -0.009449393 -0.21039414 -0.3785611 -0.23297878
0002b0 d2 be 88 3c a0 15 16 3d b5 a5 9a be 10 37 ff bd
       0.016692553 0.036641717 -0.3020455 -0.12461674
0002c0 50 02 b0 3b 24 50 e0 bd a8 ec 30 be 72 95 bd bd
       0.0053713694 -0.109527856 -0.17277777 -0.0925702
0002d0 78 3e 14 be 1c c8 2d bc 7c df 7f be 93 12 b7 bb
       -0.14476955 -0.010606792 -0.24987596 -0.005586931
0002e0 7d 8a 7d be ec 8a b7 be 96 6d 66 be 0a 80 3c be
       -0.2475986 -0.35848176 -0.22502741 -0.18408218
0002f0 03 a5 b4 be 69 c0 13 be d6 1b 3b be ca e4 a9 be
       -0.35282144 -0.14428867 -0.18272337 -0.33182365
000300 3b 49 20 be 8f 3a 80 be d6 0f be be d0 02 6e be
       -0.15652935 -0.25044677 -0.37121457 -0.2324326
000310 75 df fa bc 07 c1 2d bd f0 d0 c9 be 00 05 9f be
       -0.03062413 -0.042420413 -0.3941722 -0.31058502
000320 17 46 e2 bd aa bb aa bd 1c 96 2b be 6c c8 50 be
       -0.11048525 -0.08336575 -0.16756481 -0.20388955
000330 c6 b2 5c bd cd b4 81 be 01 e0 8e be 3d a1 42 be
       -0.05388143 -0.25333253 -0.27905276 -0.1900682
000340 03 db b0 bb b6 89 c9 bd b5 c6 9b bd b9 97 bd be
       -0.005397202 -0.098407194 -0.0760626 -0.37029818
000350 ff 74 0a be 4d 48 86 be 69 ef a5 be f3 16 b0 be
       -0.13521193 -0.26227036 -0.32409218 -0.3439251
000360 65 d4 bc bc 29 83 87 bd 2e 5a 4a be 03 04 87 be
       -0.023050496 -0.06616814 -0.19760963 -0.26370248
000370 14 33 42 be a1 11 94 be 6f 2f 2e be 9a a5 9f be
       -0.18964797 -0.289197 -0.17010282 -0.3118103
000380 5e 5c c6 3c d4 70 bc bd 9a 50 62 be ab ee cc bd
       0.024213966 -0.09201208 -0.2210106 -0.1000646
000390 c6 81 87 3c 34 4f 5f bd f0 c9 54 be 58 e9 3b bd
       0.016541373 -0.054518893 -0.20780158 -0.04587683
0003a0 4f fa 25 be 5c 84 aa be ae 32 a5 be 5a 88 b9 be
       -0.16208766 -0.33304107 -0.32265228 -0.3623684
0003b0 40 de 30 be 12 b5 c4 be 6f 92 4f be 9a 62 8e be
       -0.17272282 -0.38419396 -0.20270704 -0.27809602
0003c0 3d 1d d1 be d7 8e ee be 49 c1 84 be 08 a9 a5 be
       -0.4084262 -0.46593353 -0.25928715 -0.32355523
0003d0 13 75 42 be 3c e9 0f be 51 c1 77 be a1 b6 a7 bd
       -0.18989973 -0.14053816 -0.24194838 -0.081891306
0003e0 b7 b6 5f bc 15 aa 36 be 7e 43 6e be 9f 6a aa bd
       -0.013654402 -0.17838319 -0.23267934 -0.083211176
0003f0 a2 13 6a bd 75 a0 51 bd c2 0c 98 be 7f bf 28 be
       -0.05714763 -0.051178414 -0.29697233 -0.164793

network_body._body_endoder.seq_layers.2.weight f4 [256, 256]
000000 63 bd 45 be d6 ea e2 3d 77 a6 47 be bb f8 eb bd
       -0.19310527 0.11079948 -0.19497095 -0.11522051
000010 77 55 b0 bc 6d 34 a3 bd 03 ee 84 3d 34 d8 b3 bc
       -0.021525128 -0.07968984 0.0649071 -0.02195368
000020 45 08 de 3d 02 86 2d bd 08 24 fb ba 7b 6b 68 3e
       0.10841421 -0.042364128 -0.0019160518 0.2269725
000030 f2 b6 ec 3c 8f 38 15 be 6f f2 9f bd b1 44 cf bd
       0.028895829 -0.14572357 -0.078099124 -0.10120524
000040 6b b6 08 be 8c 01 62 be 0e b6 46 3e 7b 03 83 be
       -0.13350837 -0.22070903 0.19405386 -0.25588593
000050 8f 82 e0 bd 5f b9 5c bc 99 81 68 be fe 49 d0 3b
       -0.10962402 -0.01347193 -0.22705688 0.006356477
000060 f8 0b d9 bd ba e3 64 3e bb c4 be 3c 52 78 90 bd
       -0.10597986 0.22352496 0.023287168 -0.07054199
000070 d8 0f 7d be 4d 9d ae 3c a0 b1 3a 3e 77 04 00 3e
       -0.24713075 0.021315241 0.18231821 0.12501703
000080 49 b8 7a be 3f cf c8 bd 68 aa 7e bd f3 e3 fc 3d
       -0.24484362 -0.09805154 -0.06217423 0.12348165
000090 38 9d 03 3c 04 b6 0b be 4a d0 b1 bd 83 f3 73 be
       0.008033089 -0.13643652 -0.08682306 -0.23823361
0000a0 6d 7f 8f be 85 bc 02 be 3e b7 22 bd 12 64 5c bd
       -0.28026906 -0.12767227 -0.039725535 -0.053806372
0000b0 dc f6 d0 3c 75 de a5 be 2a f0 51 be 04 8d 16 3e
       0.025508337 -0.32396284 -0.20501772 0.1470223
0000c0 5c 53 17 bb a5 52 7f be 9e 3a c7 3d 98 2d fb bd
       -0.0023090458 -0.2493387 0.09727977 -0.12264556
0000d0 86 79 cc be ff d5 df bd b1 60 4b be fb b8 55 bd
       -0.39936465 -0.109294884 -0.19861104 -0.052178364
0000e0 74 61 72 3e 57 dd 54 be a5 6c ba bd c0 92 32 be
       0.23669988 -0.2078756 -0.091027535 -0.17438793
0000f0 33 94 be bd 52 36 a5 bd 3a 9e ef bd 3d 5d 09 be
       -0.093056105 -0.080670014 -0.11700101 -0.13414474
000100 be 09 65 be 18 35 85 3d b8 8e 0f bb b7 2a c2 bd
       -0.22366998 0.065042675 -0.0021905135 -0.094808035
000110 80 e3 72 be 7f 65 63 3e f6 19 bc 3c fb 06 f7 bd
       -0.23719597 0.22206686 0.022961598 -0.12061878
000120 fe b7 8b be 77 f6 36 3d ab 99 21 be 6e e5 4a 3c
       -0.27288812 0.04466864 -0.15781276 0.012383802
000130 5b 27 df 3c 6d 1f 35 3e d8 d3 8b 3c ed 93 a1 be
       0.027240446 0.17687769 0.017068788 -0.3155817
000140 20 65 f1 bd 6b db 00 3e 1a 74 62 bd 00 09 23 3d
       -0.11786866 0.12583701 -0.055286504 0.039803505
000150 4c a4 78 be 2a e6 8a 3c b7 f0 c1 be c7 ab f6 bd
       -0.24281424 0.016955454 -0.37878963 -0.12044483
000160 ae 87 fc bc 56 07 29 bd ee 38 0a bd 26 15 ca 3d
       -0.030826416 -0.04126676 -0.0337457 0.09867315
000170 1a f3 b4 be 90 9c 29 be d6 b4 21 bb ef 50 a6 bd
       -0.35341722 -0.1656363 -0.0024674437 -0.081209056
000180 7f d5 0b be 87 fb 00 be 85 9f a7 bd df ff 42 be
       -0.13655661 -0.1259595 -0.08184723 -0.1904292
000190 b5 e0 5e bd 1c 7b 20 be ba d7 10 be 1b f0 40 bd
       -0.054413516 -0.15671962 -0.14144793 -0.047103982
0001a0 f4 61 ec bc 08 86 2f be 7d a2 12 3d 03 9a 5d be
       -0.028855301 -0.17140973 0.035799492 -0.21640782
0001b0 ea 57 64 3a 20 8e 35 bd 49 63 85 3d 62 1f 4e be
       0.000871061 -0.044324994 0.06513078 -0.20129159
0001c0 5d 29 86 bd fc 3e 7e bb 84 41 6a 3e ae ad 39 be
       -0.06550858 -0.0038794866 0.22876555 -0.1813266
0001d0 34 ee ef bd b6 17 01 be 61 95 e8 bd b7 33 bc 3d
       -0.117153555 -0.12606701 -0.11356617 0.09189551
0001e0 91 30 b5 bc 45 3b ca bd bc 6f 82 bd 1b dc 89 be
       -0.022117885 -0.09874586 -0.06368968 -0.2692574
0001f0 a7 43 06 be 57 41 a7 be 2d 86 08 3d 37 26 5e bd
       -0.13111745 -0.32667038 0.033331085 -0.054235663
000200 38 2c 8b bd ce 14 ad be 62 21 38 be 64 af a8 bd
       -0.067955434 -0.33804935 -0.17981485 -0.08236578
000210 92 12 2a be 1e 04 1a 3e 92 54 d1 be cb eb 9f 3d
       -0.16608647 0.15040633 -0.40884835 0.07808646
000220 db fa 02 bd 0b af 3c be d7 61 2b be b6 a2 d7 bd
       -0.031977516 -0.18426149 -0.16736542 -0.105290815
000230 51 18 0b 3e 57 10 2b be 85 4f 4b be c1 25 c1 be
       0.13583495 -0.16705452 -0.19854553 -0.37724116
000240 ba e0 b2 3c 68 e4 52 bc 7a 32 ab bd 7d ca 17 be
       0.021835674 -0.012871839 -0.08359237 -0.14823337
000250 27 9a c0 bd a2 dc 36 3e 3f 2e 1b 3b c5 88 92 3c
       -0.09404402 0.17857602 0.0023678688 0.017887482
000260 e0 ff 4f be 3e ed 6c be ee 78 79 3e a6 61 1f be
       -0.20312452 -0.23137376 0.24362537 -0.15564594
000270 bb ca 7d bd 2e ad 2b be 77 19 47 be 2b fc aa bd
       -0.061960917 -0.16765282 -0.19443308 -0.083488785
000280 47 4e 3e be db 14 26 3e 19 9e 37 3d 13 84 3d be
       -0.18584548 0.16218893 0.044828508 -0.18507414
000290 94 8b cb 3d b7 2c 80 be 53 79 18 be 08 f8 78 be
       0.09938732 -0.25034115 -0.14890032 -0.24313366
0002a0 d0 44 91 be dc cd 9a 3e 70 9b 44 3e e8 a6 34 3e
       -0.28372812 0.30235183 0.1919992 0.17641795
0002b0 9b 19 ce bd 8c 56 15 bd e2 d3 11 be a0 c4 89 bd
       -0.100634776 -0.03645949 -0.14240983 -0.06726956
0002c0 23 be 71 be 37 73 4b be ae 99 5b be 93 df cb bd
       -0.23607688 -0.1986817 -0.21445343 -0.09954753
0002d0 ed e1 91 3c 0a f5 92 be e6 ab 0e bd 01 e2 a9 bd
       0.017807925 -0.28702575 -0.034831904 -0.0829506
0002e0 34 65 c9 3d 0b eb 91 bd 1a 7a 9b bd 91 d1 ec bd
       0.09833756 -0.07124909 -0.075916484 -0.11563409
0002f0 d1 c9 b1 bd 4c d9 4b 3d 8f 5c 00 be ee 26 00 be
       -0.086810715 0.049767777 -0.12535308 -0.1251485
000300 c5 d7 d6 3d 4e c2 e6 bd c3 0c 91 3e 23 84 42 be
       0.104903735 -0.112675294 0.2833005 -0.18995719
000310 b8 d2 b1 be 9d b5 15 bd 24 c1 44 3e c0 5f 12 be
       -0.34731078 -0.036550153 0.19214302 -0.14294338
000320 b3 0a 52 be ca 58 e6 3d 5d 51 87 be 86 96 ac bd
       -0.20511894 0.11247404 -0.26429263 -0.084271476
000330 f1 7f 7e be 42 94 65 be a7 43 18 3d e0 64 5a 3e
       -0.24853493 -0.22419837 0.037173893 0.21327543
000340 7e 84 5a be cc 2c 6a be 16 49 33 be 7e 71 5a be
       -0.21339604 -0.22868651 -0.17508349 -0.21332356
000350 51 de b4 bd 6c 0f 82 be 2a 90 12 be 08 46 ef 3d
       -0.08831466 -0.2540239 -0.14312807 0.11683279
000360 e8 66 76 3e b2 35 a0 bd 8d ca 94 bd a3 18 b9 3d
       0.24062693 -0.078227416 -0.07265196 0.09037902
000370 15 c0 7e 3b 2e 46 11 3c 90 8d 59 3e 66 cd a2 3d
       0.0038871814 0.00886683 0.21245408 0.07949333
000380 d9 04 86 be 4f d4 ba be eb 76 81 3d dc 1a 26 be
       -0.26175573 -0.36490104 0.0632151 -0.16221184
000390 b5 db 8f bc d8 3c 13 be 33 bb 5a 3d 4e 71 cb be
       -0.01756082 -0.14378679 0.053401183 -0.39734882
0003a0 9b ca 13 bd 1a ee 00 be 78 1d b9 bd 03 be 5d be
       -0.03608189 -0.12590829 -0.09038824 -0.21654515
0003b0 7f e8 cc 3c 7b ce 63 bc c1 fb 5e be cd 34 97 3e
       0.025013207 -0.013904209 -0.21775724 0.2953247
0003c0 c2 ed 1c be 90 10 d1 bd 6c 34 ee bd 7e 6e c2 bd
       -0.15325072 -0.10208237 -0.116310924 -0.09493731
0003d0 db 66 20 be b3 38 b9 be cb 10 db 3d d4 1e da bd
       -0.15664236 -0.3617607 0.106965624 -0.10650411
0003e0 e5 36 18 bd 41 1b d3 bc 3f 9d 0e 3b 26 bf 5b 3e
       -0.037161727 -0.025769832 0.0021761206 0.21459636
0003f0 3b cd 1e be e9 56 d4 bc d6 06 61 bc b3 47 c0 3c
       -0.15507977 -0.025920348 -0.01373454 0.023471689
