Brains/Penguin.onnx (onnx, 316179 bytes, 9 tensors)

action_model._discrete_distribution.branches.0.bias f4 [2]
-0.026489139 0.026489135
00000000: c0ff d8bc beff d83c

action_model._discrete_distribution.branches.0.weight f4 [2, 256]
0.029990133 -0.0042710355 -0.008746515 0.003844839 -0.0055748094 -0.030196253 0.023283955 0.057796698
0.023736421 -0.046724074 0.01481372 0.016198296 0.012784887 0.018744513 -0.017043268 -0.060723443
-0.025781533 0.023707375 -0.03670201 -0.045585986 -0.0024910083 0.04563261 0.027929531 -0.011846031
0.022674238 0.0116249155 0.022444483 0.0017458145 0.037330978 0.029860318 0.018517833 -0.024452716
-0.0347726 -0.04705867 0.007051698 -0.016809382 0.018159008 0.01680558 0.021891441 0.0040353145
0.008556286 0.006968154 0.013035428 -0.010544458 0.03252123 0.051449325 0.039728105 -0.0045320913
0.0143312905 -0.006976995 0.03320687 -0.02962587 0.04287778 0.014180986 -0.0062728166 0.014832838
-0.031210441 0.02862183 0.019537354 0.004750639 -0.045898493 -0.024233226 0.0050497204 0.00036958462
0.004367089 0.04283463 -0.03410751 -0.030879984 -0.022310074 -0.03158175 0.016517432 0.023714961
0.031341095 0.036984123 -0.0037356815 0.017373718 0.047131076 0.0123308245 0.031359013 -0.0038502554
0.010705064 0.012552094 0.047477234 0.036331054 -0.0030970194 -0.003552215 0.02880985 -0.0032707062
0.04061063 0.022706034 0.023841428 0.0011369085 0.037901547 0.017106645 -0.0033453293 0.0012595308
-0.027035603 -0.016123608 0.018611642 -0.013948769 -0.016107481 0.009322477 0.0030454346 0.0063453713
0.050313618 -0.0019027787 0.030292971 -0.0005701252 0.0037195133 0.013190167 -0.010817352 -0.004913126
0.018868549 0.024746131 0.043769326 -0.021216422 0.0024882446 0.04180442 -0.01051919 -0.0045320196
0.025621176 0.006987114 0.044397432 0.020987792 0.0036500911 0.043792892 0.038499914 0.042443927
-0.01974147 0.019303689 0.021690499 -0.0073399385 -0.044610627 0.003573677 0.006051961 0.00016646077
0.015396638 0.011761209 -6.0225273e-05 0.02021781 0.017511562 0.0059845382 0.0007197202 0.04121096
0.023952764 -0.0340285 -0.018592343 -0.018992376 -0.017241962 0.01812699 0.014370539 0.03959733
0.0034109459 0.013122323 0.019645585 0.021507243 0.038133286 0.0031008234 0.036847044 0.008639949
0.034930415 0.042946152 -0.03902754 0.0058497554 -0.023197519 0.03814799 0.018402517 0.04574516
0.007143983 0.012292963 -0.016151695 -0.000859378 0.004504322 0.007858924 -0.016463686 0.031655576
0.030752296 -0.034368504 -0.043069012 0.0041751694 -0.045411024 0.029710578 -0.03383402 -0.0045156805
0.050486304 0.054072365 0.038270745 0.047161676 0.032924306 -0.021740546 0.01566233 0.016200086
-0.0037496928 0.021009387 -0.0057705836 0.009798376 0.0026208677 0.02171664 -0.0012474085 -0.011910859
0.02770927 0.01079694 -0.0026312503 0.012729742 -0.0062213573 0.017281283 0.06950605 -0.011383064
0.024123108 0.008462502 0.01984785 0.029367458 0.032123215 0.047165703 -0.01382449 -0.008047146
0.0050707352 -0.039858285 0.01184012 0.0035256115 -0.013196392 0.015678396 0.039391156 0.012439892
0.004528587 0.03023682 0.027893014 -0.023556639 -0.019262265 0.025660513 0.017571531 0.03904192
0.0028212634 0.022783643 0.040350463 0.012973813 -0.002865589 -0.0016246006 0.025457734 -0.07606419
0.023955848 -0.014886472 0.02873394 0.024671871 -0.0011094302 0.022290537 0.0012799877 -0.02022345
0.03626943 0.005707968 -0.0119454935 0.02758088 -0.011276889 0.00010118889 0.003391374 0.009135357
00000000: dead f53c 0bf4 8bbb 8b4d 0fbc b2f9 7b3b
00000010: e4ac b6bb 225e f7bc febd be3c 3bbc 6c3d
00000020: e272 c23c be61 3fbd 3fb5 723c 4ab2 843c
00000030: b477 513c 188e 993c 539e 8bbc 25b9 78bd
00000040: cb33 d3bc f835 c23c d954 16bd 5fb8 3abd
00000050: 2f40 23bb 42e9 3a3d 79cc e43c db15 42bc
00000060: 53bf b93c 6e76 3e3c 7edd b73c d0d3 e43a
00000070: 5ee8 183d a09d f43c b6b2 973c 1051 c8bc
00000080: b76d 0ebd 98c0 40bd ee11 e73b d4b3 89bc
00000090: 33c2 943c dbab 893c ae55 b33c ac3a 843b
000000a0: aa2f 0c3c 1d55 e43b 8c92 553c aac2 2cbc
000000b0: fb34 053d 87bc 523d f0b9 223d f081 94bb
000000c0: cacd 6a3c 479f e4bb ed03 083d f4b1 f2bc
000000d0: 9ca0 2f3d 5e57 683c 338c cdbb 6f05 733c
000000e0: 0aad ffbc 5478 ea3c cd0c a03c 40ab 9b3b
000000f0: 0f00 3cbd c284 c6bc 2078 a53b cfc4 c139
00000100: cc19 8f3b 5d73 2f3d 51b4 0bbd 05f8 fcbc
00000110: 9ec3 b6bc dd5b 01bd 914f 873c e145 c23c
00000120: 855f 003d aa7c 173d 56d2 74bb 5453 8e3c
00000130: 840c 413d 3a07 4a3c 4f72 003d 9154 7cbb
00000140: 4b64 2f3c 4ca7 4d3c 7d77 423d dfcf 143d
00000150: 5df7 4abb 47cc 68bb a202 ec3c 5859 56bb
00000160: 5557 263d 0102 ba3c 194f c33c 5204 953a
00000170: a73e 1b3d 3c23 8c3c 503d 5bbb d716 a53a
00000180: c579 ddbc a815 84bc 7177 983c 6189 64bc
00000190: d6f3 83bc 4dbd 183c ea95 473b d5ec cf3b
000001a0: a715 4e3d a966 f9ba f728 f83c 7474 15ba
000001b0: 14c3 733b 921b 583c 433b 31bc 4afe a0bb
000001c0: 3792 9a3c 66b8 ca3c 7747 333d 10ce adbc
000001d0: d111 233b 1d3b 2b3d ae58 2cbc 5681 94bb
000001e0: 80e3 d13c 29f4 e43b 15da 353d 97ee ab3c
000001f0: 5e36 6f3b 2d60 333d 16b2 1d3d afd9 2d3d
00000200: ddb8 a1bc c522 9e3c 46b0 b13c de83 f0bb
00000210: a2b9 36bd 5a34 6a3b 874f c63b f98b 2e39
00000220: 2e42 7c3c 16b2 403c 659a 7cb8 d29f a53c
00000230: 6874 8f3c f219 c43b 9bab 3c3a d3cc 283d
00000240: 9638 c43c 7861 0bbd f84e 98bc e695 9bbc
00000250: 043f 8dbc 0e7f 943c 6972 6b3c cf30 223d
00000260: 2d8a 5f3b 03ff 563c c7ef a03c f52f b03c
00000270: a631 1c3d 2f37 4b3b edec 163d 938e 0d3c
00000280: 3213 0f3d 4ee8 2f3d 57db 1fbd 4eaf bf3b
00000290: b908 bebc 1141 1c3d e0c0 963c 475f 3b3d
000002a0: 1318 ea3b 6d68 493c 8f50 84bc e247 61ba
000002b0: fe98 933b b7c2 003c dade 86bc 47a9 013d
000002c0: 3dec fb3c fdc5 0cbd 2269 30bd dccf 883b
000002d0: e900 3abd 9963 f33c 8b95 0abd 46f8 93bb
000002e0: baca 4e3d fc7a 5d3d c9c1 1c3d 9a2c 413d
000002f0: a3db 063d 3b19 b2bc 494e 803c 0bb6 843c
00000300: 68bd 75bb e11b ac3c 2a17 bdbb 5e89 203c
00000310: ddc2 2b3b 18e7 b13c 1580 a3ba c325 43bc
00000320: 8dfe e23c a6e5 303c 0e71 2cbb 6890 503c
00000330: 87dc cbbb 7a91 8d3c 3059 8e3d 0880 3abc
00000340: d39d c53c 4ea6 0a3c f597 a23c 0694 f03c
00000350: a293 033d d330 413d 1d80 62bc 2dd8 03bc
00000360: 6928 a63b 7142 23bd 10fd 413c f20d 673b
00000370: ae35 58bc fb6f 803c 9f58 213d b0d0 4b3c
00000380: 8b64 943b 35b3 f73c e47f e43c daf9 c0bc
00000390: e6cb 9dbc ff35 d23c 2cf2 8f3c 6cea 1f3d
000003a0: f2e4 383b c3a4 ba3c 8746 253d 1e90 543c
000003b0: 9bcc 3bbb 8df0 d4ba bd8c d03c 8bc7 9bbd
000003c0: 0e3f c43c 64e6 73bc 7163 eb3c aa1c ca3c
000003d0: 4d6a 91ba a59a b63c 43c5 a73a a6ab a5bc
000003e0: 418f 143d e809 bb3b 08b7 43bc 4cf1 e13c
000003f0: b3c2 38bc 5f35 d438 d041 5e3b 77ac 153c

action_model._discrete_distribution.branches.1.bias f4 [3]
-0.0033214209 -0.0060032536 0.008887707
00000000: 32ac 59bb f1b6 c4bb bf9d 113c

action_model._discrete_distribution.branches.1.weight f4 [3, 256]
-0.007828333 -0.00013796952 -0.007098205 -0.0120895775 -0.028260374 -0.00014288239 -0.038812086 0.021977726
-0.0010511884 0.03871907 0.00469121 -0.010331071 -0.0016844049 -0.01370531 -0.018447189 0.02574902
-0.013458221 -0.029568817 0.021860553 0.028615301 0.007498943 -0.018514654 -0.0033405065 -0.010177026
0.0058649685 0.007733034 -0.0002658717 -0.029750263 -0.017467052 -0.05983329 -0.011097961 -0.002326037
0.0121415 0.013778498 -0.034872133 -0.02484409 0.014273079 -0.012233864 -0.02696579 0.021770699
-0.0042284755 -0.043697726 -0.0110891005 -0.00996228 -0.0078464 -0.025757445 0.005385165 -0.0016896211
0.0045735175 0.0010529169 -0.014038945 0.031021005 -0.012216502 0.023046881 -0.0053342124 -0.0113637755
-0.006418498 -0.0064508384 -0.01521437 -0.01852644 0.018950116 -0.005645978 -0.016194792 0.01241223
0.0051516197 -0.013664204 0.03727515 -0.0076845144 -0.017480288 0.0425763 0.011914358 -0.050792105
-0.0072406093 -0.023420379 -0.016859232 -0.006604132 -0.016103642 -0.014392594 -0.019016868 0.004562376
0.0070818774 -0.020379685 -0.00030243912 -0.011430802 -0.01039903 -0.026276838 -0.050707825 0.0037530812
0.0017985101 -0.02314575 0.0026827923 -0.004262301 -0.021529358 0.0012137895 -0.042580705 -0.0010902702
-0.009959079 0.01330542 -0.007189313 -0.03038308 0.022866352 -0.02808427 0.0073138042 0.0007530275
-0.016050214 0.018032286 -0.007745658 0.0041441745 -0.011231401 -0.010424695 -0.013982602 0.01822575
0.021611366 -0.020120991 -0.0017941517 -0.012024415 0.009918013 -0.012977252 0.013132573 -0.019266147
0.0031225719 0.00028183183 0.010561559 -0.0011644618 -0.008822212 -0.01152796 0.0015062444 0.027955286
0.026521036 -0.00564346 -0.02227689 -0.0121773435 0.050654408 -0.0054203477 0.0049079093 -0.002940926
-0.017978083 0.011986778 0.027214393 -0.005804669 0.0006119858 -0.035131965 -0.003398763 0.0076706004
-0.011153233 0.033730604 0.003998583 -0.024367543 -0.0039484515 -0.0023430856 -0.007679124 -0.026844066
0.0013931562 -0.01821975 -0.016777609 -0.02089792 -0.017784746 -0.006012215 -0.009367708 0.017789396
0.0012639542 -0.015339592 0.030136835 -0.021687858 0.015528768 -0.0023862612 -0.015925892 -0.014115936
0.006721135 -0.03540958 0.03162333 -0.015671188 -0.023651578 0.020665804 -0.036701385 -0.012773272
-0.009528491 0.011559518 0.029949617 -0.010898544 0.029695332 0.043092918 0.027669488 0.0056915754
-0.007905615 -1.687484e-05 -0.008462087 -0.0032251948 0.0054664565 0.026379116 0.0016925051 -0.025569031
-0.00097054703 -0.033792246 0.0076449667 -0.0014800065 -0.015553774 -0.0121023245 -0.030622631 0.018169
-0.014550193 0.010138642 -0.013339453 -0.0033137226 -0.019613046 0.0015913749 -0.004727901 0.023410184
-0.0370848 -0.018010799 -0.032903455 -0.018995633 0.027253898 -0.027874481 0.030298933 0.022431247
-0.00036549507 -0.010555009 -0.011511658 -0.014248247 0.016381808 -0.028190576 -7.951202e-05 -0.036314066
0.027817985 -0.020920303 -0.006035117 -0.0018521644 -0.009394296 0.0034140982 0.004591014 -0.031427823
-0.0030342052 -0.021096962 0.0073338305 -0.039910592 -0.018642414 0.013577294 -0.031810734 0.008796267
-0.04421115 0.00039746714 -0.013229834 -0.024287261 0.011550038 -0.009486562 0.0038469662 0.025943413
-0.010800576 0.020557461 0.021208158 -0.05209926 0.0015109665 -0.016981995 -0.019015342 -0.0039117867
00000000: 6942 00bc e9ab 10b9 0f98 e8bb 5d13 46bc
00000010: 4d82 e7bc b3d2 15b9 6cf9 1ebd a20a b43c
00000020: 08c8 89ba e397 1e3d b9b8 993b a743 29bc
00000030: 40c7 dcba 3d8c 60bc 8f1e 97bc 9cef d23c
00000040: df7f 5cbc 4e3a f2bc e714 b33c a36a ea3c
00000050: b1b9 f53b 0bac 97bc 66ec 5abb 8abd 26bc
00000060: ec2e c03b 6465 fd3b b264 8bb9 d3b6 f3bc
00000070: 1017 8fbc c013 75bd 39d4 35bc 6d70 18bb
00000080: 24ed 463c 36bf 613c 15d6 0ebd d585 cbbc
00000090: a2d9 693c 8b70 48bc 5ce7 dcbc 7758 b23c
000000a0: 068f 8abb 63fc 32bd 0faf 35bc d538 23bc
000000b0: 308e 00bc 4701 d3bc 0a76 b03b 4776 ddba
000000c0: 72dd 953b 0702 8a3a 9a03 66bc c31f fe3c
000000d0: b927 48bc d0cc bc3c 9eca aebb 212f 3abc
000000e0: 4352 d2bb 8e61 d3bb b145 79bc c3c4 97bc
000000f0: 463d 9b3c e501 b9bb f1aa 84bc aa5c 4b3c
00000100: ebce a83b d3df 5fbc d4ad 183d 61ce fbbb
00000110: d232 8fbc 7d64 2e3d 7034 433c 620b 50bd
00000120: a242 edbb 18dc bfbc 5f1c 8abc 7967 d8bb
00000130: c9eb 83bc eace 6bbc 43c9 9bbc fc7f 953b
00000140: 180f e83b 4cf3 a6bc b190 9eb9 4248 3bbc
00000150: b160 2abc 8642 d7bc 02b3 4fbd 41f6 753b
00000160: fcbb eb3a 289c bdbc c9d1 2f3b c6aa 8bbb
00000170: 565e b0bc 0418 9f3a 1b69 2ebd 66e7 8eba
00000180: 682b 23bc fafe 593c 5494 ebbb f0e5 f8bc
00000190: 3752 bb3c fc10 e6bc a3a8 ef3b d266 453a
000001a0: bd7b 83bc 72b8 933c 4acf fdbb dbcb 873b
000001b0: e903 38bc 57cc 2abc 4917 65bc 2b4e 953c
000001c0: 520a b13c c7d4 a4bc be29 ebba 0d02 45bc
000001d0: 297f 223c 8a9e 54bc 012a 573c 0ad4 9dbc
000001e0: 10a4 4c3b d4c2 9339 640a 2d3c dba0 98ba
000001f0: 0a8b 10bc c5df 3cbc 2d6d c53a 7c02 e53c
00000200: a542 d93c c6ec b8bb 067e b6bc 7b83 47bc
00000210: ff7a 4f3d 2c9d b1bb 87d2 a03b 8dbc 40bb
00000220: c646 93bc 3164 443c b8f0 de3c 1835 bebb
00000230: ac6d 203a 89e6 0fbd c8bd 5ebb a959 fb3b
00000240: 0dbc 36bc 1a29 0a3d 8c06 833b 719e c7bc
00000250: 0362 81bb 748e 19bb 29a1 fbbb 16e8 dbbc
00000260: 919a b63a 9641 95bc 3271 89bc 1d32 abbc
00000270: 51b1 91bc 1d02 c5bb 047b 19bc 11bb 913c
00000280: 44ab a53a e952 7bbc 86e1 f63c bcaa b1bc
00000290: 606c 7e3c d262 1cbb 0477 82bc 8746 67bc
000002a0: f83c dc3b a309 11bd 7787 013d dd60 80bc
000002b0: f4c0 c1bc 554b a93c 3154 16bd fc46 51bc
000002c0: 631d 1cbc 2264 3d3c e658 f53c cf8f 32bc
000002d0: a043 f33c 3382 303d 1fab e23c 6580 ba3b
000002e0: 8d86 01bc 718e 8db7 91a4 0abc ca5d 53bb
000002f0: f61f b33b 0419 d83c 0cd7 dd3a 2576 d1bc
00000300: 4f6c 7eba bd69 0abd a182 fa3b c7fc c1ba
00000310: 42d5 7ebc d448 46bc 50dc fabc 28d7 943c
00000320: ef63 6ebc 8c1c 263c b98d 5abc 0a2b 59bb
00000330: 8aab a0bc ae95 d03a 82ec 9abb b7c6 bf3c
00000340: 3be6 17bd 628b 93bc c6c5 06bd bb9c 9bbc
00000350: 9143 df3c 0659 e4bc 7835 f83c bcc1 b73c
00000360: eb9f bfb9 ebee 2cbc 659b 3cbc 7b71 69bc
00000370: 2433 863c ecef e6bc b1bf a6b8 0fbe 14bd
00000380: 8be2 e33c 0e61 abbc 3bc2 c5bb 53c4 f2ba
00000390: 89ea 19bc 10bf 5f3b 3770 963b 76ba 00bd
000003a0: 84d9 46bb 89d3 acbc a150 f03b 4a79 23bd
000003b0: fab7 98bc 4c73 5e3c f94b 02bd 381e 103c
000003c0: c016 35bd 2363 d039 f2c1 58bc 14f6 c6bc
000003d0: 5f3c 3d3c 866d 1bbc 621d 7c3b 4887 d43c
000003e0: e6f4 30bc 1f68 a83c bbbc ad3c 0966 55bd
000003f0: 9f0b c63a d31d 8bbc 10c6 9bbc 722e 80bb

discrete_action_output_shape f4 [1, 2]
2.0 3.0
00000000: 0000 0040 0000 4040

network_body._body_endoder.seq_layers.0.bias f4 [256]
0.041206628 0.05783295 0.025588408 -0.008540139 0.013249577 0.03751844 0.019814108 0.036265854
-0.015577036 -0.0006979437 -0.011530532 -0.02926693 0.020096915 0.022690559 0.006695 0.039937697
0.020348737 0.033855297 0.0039360076 0.018330049 0.00020499562 0.013193093 0.070806615 -0.028197652
0.0047416827 0.06787889 -0.03356963 0.044692818 0.030517213 0.01837786 0.0564583 0.028746577
0.0012570407 -0.009450273 0.030735286 0.012682383 0.012324988 0.0483028 0.042763747 0.014453754
0.0023849327 -0.005347619 -0.021654345 -0.008469478 0.036586184 -0.03676704 0.02230387 0.038594298
-0.007306019 0.020475378 -0.013974524 -0.012723297 0.01760518 0.029072747 -0.09163023 0.0025706224
-0.048636425 -0.0319712 0.028712226 0.060699992 -0.051508803 -0.025319932 -0.0033494744 -0.05170192
0.09560961 -0.017305812 0.023682531 -0.004472726 -0.012193447 0.022939272 -0.019795517 0.0007602202
0.0070717093 0.061230384 -0.019072697 -0.03126361 -0.007599338 0.028830154 -0.04104861 -0.013178537
0.012281256 0.0087989 0.024149353 0.01451251 -0.011975103 -0.010575205 -0.036737267 -0.010725933
0.05979372 0.00438691 -0.061835118 0.011953073 0.017511306 -0.077212 0.021607589 0.017687643
-0.011707862 0.0047701416 -0.037786137 0.009983128 -0.012012851 -0.019890347 0.043366928 0.040351156
-0.017681029 -0.012055557 0.0098420195 -0.0269301 -0.06365383 0.012962156 0.06061951 0.024888212
0.036475394 -9.729217e-05 0.01849932 -0.020571822 -0.05254355 0.037903696 0.057836495 0.04204114
0.004330669 0.03662671 0.03593368 0.0648304 0.03373865 0.02400929 -0.05229784 0.0017339323
0.024931712 0.027607173 0.006946575 -0.012851324 -0.0025106685 -0.0065235826 -0.030586189 -0.005516911
0.0026208044 0.015483058 0.026962696 0.070828974 0.05302946 -0.016338417 0.025643079 -0.03269991
-0.003890869 0.025204401 0.0017330532 -0.004176791 -0.016833609 0.054490574 0.026246654 -0.008866247
0.013042122 -0.020194557 0.009042319 0.0036926442 0.032822106 -0.023360658 0.044211272 0.017498473
0.028651768 -0.03527762 -0.0650916 0.0065539926 0.042883143 -0.039456222 0.0036761642 -0.026718112
-0.015214069 0.028052635 0.025773061 0.0015196389 0.0124210045 0.018430425 -0.07038196 0.03366169
0.020264603 0.013649276 -0.003324947 0.010154614 -0.01867537 -0.003029892 0.08354962 0.014745769
0.011443913 -0.015562829 -0.0039961543 -0.024952898 0.03710399 0.05138665 0.029556563 0.025159296
0.006144062 -0.020634789 0.091730945 0.0012077508 -0.035051223 -0.07851781 -0.0040293606 0.01808765
0.054765347 0.015337651 -0.063429974 -0.0009208242 -0.047398426 0.0038604052 -0.019368775 -0.010281253
-0.01585585 0.017063497 0.0553286 0.037254076 -0.030695928 0.011143697 -0.008337978 0.011340001
0.00041095554 0.0567994 -0.038606815 0.039119374 -0.012596535 0.048962496 -0.0016953687 0.0278422
0.03380508 -0.030691711 0.01460652 0.0063559683 -0.009128453 0.040693738 0.0052306047 0.023639306
-0.029403785 0.007950288 -0.0035976095 0.014094864 0.01770074 -0.055593953 0.00018765114 0.010774565
0.00094808865 0.008220693 -0.023262408 -0.016810391 -0.0033998562 0.050196458 0.004591351 0.06536767
0.047584016 0.016005697 -0.0149398185 -0.016524386 -0.007886899 -0.0077675763 0.009685811 -0.007329253
00000000: 48c8 283d 3ee2 6c3d c89e d13c f0eb 0bbc
00000010: c114 593c f0ac 193d 3251 a23c 818b 143d
00000020: d336 7fbc 35f6 36ba 8eea 3cbc 33c1 efbc
00000030: 49a2 a43c 8de1 b93c bb61 db3b b695 233d
00000040: 65b2 a63c daab 0a3d a0f9 803b e628 963c
00000050: 18f4 5639 d827 583c 0f03 913d c3fe e6bc
00000060: 1e60 9b3b 1604 8b3d 4f80 09bd d10f 373d
00000070: 3cff f93c 2a8d 963c d240 673d f17d eb3c
00000080: 49c3 a43a 51d5 1abc 91c8 fb3c c5c9 4f3c
00000090: bfee 493c 28d9 453d 0a29 2f3d 70cf 6c3c
000000a0: 884c 1c3b 143b afbb 7464 b1bc 91c3 0abc
000000b0: 65db 153d 0999 16bd 9bb6 b63c 0e15 1e3d
000000c0: 5467 efbb fbbb a73c 67f5 64bc 6075 50bc
000000d0: bd38 903c f829 ee3c a1a8 bbbd e377 283b
000000e0: fd36 47bd 3cf4 02bd e735 eb3c 8ea0 783d
000000f0: e5fa 52bd bf6b cfbc db82 5bbb 64c5 53bd
00000100: f9ce c33d ebc4 8dbc de01 c23c f28f 92bb
00000110: 06c7 47bc 24eb bb3c 352a a2bc 8449 473a
00000120: ccb9 e73b b6cc 7a3d 583e 9cbc 450e 00bd
00000130: de03 f9bb 372d ec3c 9622 28bd caea 57bc
00000140: 5237 493c 4329 103c ddd4 c53c e1c5 6d3c
00000150: 3933 44bc a043 2dbc d179 16bd d3bb 2fbc
00000160: 42ea 743d 11c0 8f3b d246 7dbd d2d6 433c
00000170: df73 8f3c 5321 9ebd 6602 b13c ade5 903c
00000180: 55d2 3fbc d94e 9c3b a3c5 1abd 4690 233c
00000190: 8dd1 44bc 15f1 a2bc 85a1 313d 4147 253d
000001a0: ced7 90bc ac84 45bc 6c40 213c 839c dcbc
000001b0: f05c 82bd 395f 543c 2a4c 783d 5de2 cb3c
000001c0: 3967 153d 5609 ccb8 e38b 973c 3d86 a8bc
000001d0: e837 57bd e840 1b3d f6e5 6c3d 5533 2c3d
000001e0: 49e8 8d3b e405 163d 322f 133d cdc5 843d
000001f0: 8a31 0a3d 21af c43c 4336 56bd 1d45 e33a
00000200: 973d cc3c 7028 e23c 18a0 e33b 5c8e 52bc
00000210: 078a 24bb c7c3 d5bb e38f fabc 34c7 b4bb
00000220: cdc1 2b3b a7ac 7d3c dfe0 dc3c c80e 913d
00000230: 6b35 593d 25d8 85bc 6f11 d23c 57f0 05bd
00000240: f3fd 7ebb 7679 ce3c 9e27 e33a 76dd 88bb
00000250: a3e6 89bc 8231 5f3d 3903 d73c bc43 11bc
00000260: a0ae 553c 0e6f a5bc 3c26 143c 4a00 723b
00000270: 7970 063d da5e bfbc e116 353d f558 8f3c
00000280: 1db7 ea3c 447f 10bd bf4e 85bd e0c2 d63b
00000290: 3ca6 2f3d d99c 21bd cdeb 703b f1df dabc
000002a0: 6e44 79bc a4ce e53c 0722 d33c 9f2e c73a
000002b0: 7881 4b3c 67fb 963c 6b24 90bd d7e0 093d
000002c0: f401 a63c 37a1 5f3c 5be7 59bb 8a5f 263c
000002d0: 17fd 98bc 2791 46bb 101c ab3d 3d98 713c
000002e0: 407f 3b3c 3cfb 7ebc 2cf2 82bb 056a ccbc
000002f0: 5afa 173d cf7a 523d 9b20 f23c de1a ce3c
00000300: 2154 c93b 4a0a a9bc 6fdd bb3d 644d 9e3a
00000310: df91 0fbd f2cd a0bd ba08 84bb 8d2c 943c
00000320: a151 603d c54a 7b3c 93e7 81bd 7763 71ba
00000330: da24 42bd dafe 7c3b 44ab 9ebc b372 28bc
00000340: 21e4 81bc bfc8 8b3c 3ea0 623d bb97 183d
00000350: 0776 fbbc 0e94 363c 049c 08bc 69cb 393c
00000360: 8575 d739 7da6 683d 2e22 1ebd a33b 203d
00000370: b261 4ebc e68c 483d 2237 deba 5315 e43c
00000380: 3277 0a3d 2f6d fbbc 2f50 6f3c ba45 d03b
00000390: 828f 15bc 7aae 263d 7e65 ab3b 38a7 c13c
000003a0: 35e0 f0bc ed41 023c dfc5 6bbb 25ee 663c
000003b0: 2401 913c 7cb6 63bd 38c4 4439 cd87 303c
000003c0: 2789 783a 16b0 063c ce90 bebc f2b5 89bc
000003d0: 1fd0 5ebb cd9a 4d3d 0b73 963b 7cdf 853d
000003e0: 75e7 423d 611e 833c 24c6 74bc 265e 87bc
000003f0: 0d38 01bc 2787 febb 3cb1 1e3c 3b2a f0bb

network_body._body_endoder.seq_layers.0.weight f4 [256, 43]
-0.04467157 0.1176997 -0.45798382 -0.09562539 0.008668107 -0.25085658 -0.014674465 0.1439696
-0.018349323 0.18963465 0.16409509 0.18677518 0.030920284 0.038429357 0.069089286 -0.0152215175
-0.2166267 0.35508913 -0.042477023 -0.09122988 0.3246006 0.17646012 0.3359215 0.1627231
-0.27294832 0.14064436 -0.29859778 0.14983644 -0.12506987 0.08527147 0.15023649 0.20811516
-0.14803135 0.010323934 0.14130975 0.16580279 -0.020998986 -0.124350786 0.022233384 0.046560112
-0.04208089 -0.069836885 0.0010775488 -0.255937 0.064551964 -0.22054113 -0.047634874 0.059924886
0.045901325 0.21758425 0.13905266 -0.08163961 0.2632243 -0.13277873 -0.284877 0.07866045
0.25128165 -0.31405744 -0.121733375 -0.00042373055 0.12594818 0.18120788 -0.095359 -0.47555166
-0.23497094 0.3159259 0.053273097 0.24023515 0.19843772 0.099353276 0.2547473 -0.08112317
0.19921234 -0.22877048 -0.35399345 0.08802583 -0.083721 0.21436484 -0.30628896 -0.038485024
0.24109216 -0.17071165 0.06852126 0.064151414 -0.16083579 0.12432834 0.050767973 0.24535094
0.011959311 0.042248104 0.34761876 -0.16866998 -0.39984837 -0.15172955 0.055873606 0.3007079
-0.12058257 0.016857063 0.17248619 -0.12642154 0.0120504415 -0.14581938 0.13995144 -0.22148022
0.2465717 0.06150566 0.06396253 0.20560673 -0.065833606 0.1670763 0.23045592 -0.19299304
0.011540846 0.1149177 -0.24653208 0.03933141 -0.07269529 -0.14070426 -0.06766479 0.17710432
0.071818516 -0.26677918 -0.049236268 0.30698842 -0.07124118 0.09412069 0.26422608 0.057762865
-0.18117261 0.18167627 -0.034796674 0.07455428 0.10364979 0.15357736 -0.07280075 -0.21834213
-0.11951095 0.15490378 -0.14374705 0.37717733 0.25728965 -0.10040724 0.109421596 -0.086543545
-0.018814992 0.029893376 -0.1829572 0.03485708 0.077653095 -0.08042079 -0.017762337 0.14872101
0.019138532 -0.048284337 -0.10769635 0.04889523 -0.01096674 -0.19834955 -0.057828363 0.23103079
-0.0685286 -0.018675366 0.21099904 0.17511062 -0.021176843 -0.21571068 0.08604444 -0.118911065
0.010721665 0.3543208 -0.25967547 -0.1819811 0.17787215 -0.13729267 0.10342561 -0.056401134
-0.20165972 -0.03432644 -0.21623811 0.011272088 0.25556895 0.09152453 0.055743404 0.038427755
0.026377525 0.051631555 0.007122458 0.07496859 -0.17166187 0.24784775 -0.13394384 0.061958138
0.26784715 -0.15215376 -0.0003873699 -0.05001999 -0.2670119 0.17164615 -0.30777922 -0.11395947
0.13961793 0.20804049 0.3527295 0.0080332635 0.096741825 -0.12747455 -0.12974042 -0.09794252
-0.009655758 0.048166927 -0.20638591 0.34547955 -0.12932971 -0.24019106 0.19164425 0.38025403
0.15513529 -0.030602967 0.4917632 0.08833467 0.11846295 -0.032326434 0.19621964 0.21250644
0.014922501 -0.08007542 0.0421832 -0.049801722 -0.02875816 0.21015038 0.024576519 0.17120078
0.122377865 -0.19478714 0.29861695 -0.045039024 -0.051441792 -0.084183946 0.28178546 0.12793729
0.16628183 0.17275722 0.19923048 -0.074557744 0.12399338 0.0022630855 -0.05657708 0.3637886
0.023243302 0.4346875 -0.053015586 -0.10774769 0.15500715 0.16799776 -0.33402953 0.033687677
00000000: 89f9 36bd 8a0c f13d db7c eabe 3fd7 c3bd
00000010: ad04 0e3c 4670 80be 2b6d 70bc c46c 133e
00000020: 5251 96bc 962f 423e 8b08 283e fe41 3f3e
00000030: 894c fd3c 1a68 1d3d af7e 8d3d ac63 79bc
00000040: 64d3 5dbe 3ece b53e 63fc 2dbd bbd6 babd
00000050: 0d32 a63e f6b1 343e e7fd ab3e e2a0 263e
00000060: e2bf 8bbe 1305 103e cfe1 98be b96e 193e
00000070: 5112 00be cfa2 ae3d 98d7 193e 241c 553e
00000080: 8895 17be b825 293c 81b3 103e 35c8 293e
00000090: 1106 acbc a0ab febd c922 b63c d1b5 3e3d
000000a0: 035d 2cbd a406 8fbd 8a3c 8d3a 2d0a 83be
000000b0: d233 843d 89d5 61be c91c 43bd cc73 753d
000000c0: 0703 3c3d 68ce 5e3e d263 0e3e ab32 a7bd
000000d0: 56c5 863e 26f7 07be 66db 91be bb18 a13d
000000e0: fda7 803e 23cc a0be 594f f9bd 2728 deb9
000000f0: 8ff8 003e 8f8e 393e 944b c3bd 827b f3be
00000100: 399c 70be 0ac1 a13e e434 5a3d 3400 763e
00000110: 4233 4b3e bb79 cb3d 3d6e 823e e823 a6bd
00000120: 52fe 4b3e cf42 6abe a13e b5be e346 b43d
00000130: ea75 abbd 7582 5b3e e8d1 9cbe 79a2 1dbd
00000140: dde0 763e 09cf 2ebe e054 8c3d d161 833d
00000150: 23b2 24be db9f fe3d 14f2 4f3d 473d 7b3e
00000160: fcf0 433c 590c 2d3d 16fb b13e d3b7 2cbe
00000170: edb8 ccbe fe5e 1bbe b9db 643d 63f6 993e
00000180: fff3 f6bd d317 8a3c 38a0 303e a674 01be
00000190: 376f 453c ad51 15be 6e4f 0f3e b6cb 62be
000001a0: 4b7d 7c3e 5ced 7b3d c9fe 823d 928a 523e
000001b0: c5d3 86bd 0d16 2b3e a3fc 6b3e f89f 45be
000001c0: d115 3d3c f959 eb3d e872 7cbe f919 213d
000001d0: 45e1 94bd c714 10be d693 8abd d65a 353e
000001e0: 9615 933d 4897 88be f8ab 49bd 962d 9d3e
000001f0: e5e6 91bd 59c2 c03d a448 873e c198 6c3d
00000200: 5085 39be 5809 3a3e f586 0ebd eaaf 983d
00000210: 5746 d43d 6243 1d3e 8f18 95bd 1495 5fbe
00000220: 28c2 f4bd 199f 1e3e 6d32 13be 631d c13e
00000230: 78bb 833e 50a2 cdbd 6e18 e03d be3d b1bd
00000240: e621 9abc f4e2 f43c 2259 3bbe 4cc6 0e3d
00000250: 9608 9f3d a8b3 a4bd 5282 91bc 524a 183e
00000260: 69c8 9c3c ccc5 45bd e78f dcbd 5d46 483d
00000270: d7ad 33bc 251c 4bbe 6fdd 6cbd 5693 6c3e
00000280: b958 8cbd 15fd 98bc 2210 583e 3350 333e
00000290: 0f7b adbc 43e3 5cbe 1138 b03d a587 f3bd
000002a0: eca9 2f3c 8969 b53e 2ff4 84be 4159 3abe
000002b0: 1e24 363e 7396 0cbe ced0 d33d e004 67bd
000002c0: e37f 4ebe e299 0cbd 866d 5dbe 90ae 383c
000002d0: efd9 823e 3671 bb3d 3253 643d 6c66 1d3d
000002e0: ae15 d83c 9c7b 533d 8263 e93b 2289 993d
000002f0: 21c8 2fbe cdcb 7d3e 9328 09be d1c7 7d3d
00000300: 4323 893e 32ce 1bbe e817 cbb9 c3e1 4cbd
00000310: c9b5 88be 02c4 2f3e 3d95 9dbe 9563 e9bd
00000320: 01f8 0e3e 9108 553e f698 b43e f39d 033c
00000330: 9420 c63d b088 02be acda 04be 1796 c8bd
00000340: 2f33 1ebc af4a 453d d456 53be b2e2 b03e
00000350: 026f 04be a5f4 75be 643e 443e a8b0 c23e
00000360: c9db 1e3e 13b3 fabc 63c8 fb3e cfe8 b43d
00000370: b49c f23d b968 04bd cded 483e 4a9b 593e
00000380: 817d 743c 95fe a3bd 4bc8 2c3d e4fc 4bbd
00000390: 3c96 ebbc a931 573e b254 c93c 424f 2f3e
000003a0: 3fa1 fa3d 4876 47be 52e4 983e d77a 38bd
000003b0: a1b4 52bd a268 acbd 2f46 903e fe01 033e
000003c0: c945 2a3e 45e7 303e 1303 4c3e bbb1 98bd
000003d0: 3ef0 fd3d 4650 143b 5ebd 67bd 8042 ba3e
000003e0: bd68 be3c 5c8f de3e df26 59bd d2aa dcbd
000003f0: 32ba 1e3e 9b07 2c3e eb05 abbe 17fc 093d

network_body._body_endoder.seq_layers.2.bias f4 [256]
0.008660767 0.0018671958 -0.0030633102 -0.0022067942 -0.010217158 0.016241068 0.007662837 0.0032639408
-0.03686713 0.0277669 -0.0026838086 -0.0036532404 0.0010648303 0.0010040145 -0.0035252653 0.030973522
0.016408047 0.007621622 0.026377471 0.022477308 0.004741647 -0.008734288 0.0075201644 0.000607869
0.0025655483 -0.0054916763 -0.010531418 0.0035948553 0.010049564 0.011490955 -0.018981392 0.010079213
0.010403878 0.04811232 -0.0004115059 0.0011582639 0.0065120934 0.0169804 0.01098263 0.008582515
0.009534001 0.014471291 0.008628769 -0.007455597 -0.064057976 0.0144263515 -0.005772748 -0.0058141355
-0.019088438 -0.0024137378 -0.0083259195 0.016654994 0.007309127 0.009011874 0.004719815 -0.0033314486
-0.0017962727 -0.0005407846 -0.0057592643 0.014175561 0.024174675 0.013021589 0.018938683 0.0077469484
-0.010920718 -0.004444297 0.050307732 0.040667474 -0.00041262637 0.020295873 0.0054207207 0.009233032
-0.015784783 -0.009872964 0.008282877 -0.0048053437 -0.007857268 0.00032212623 0.0097068865 -0.0069091576
0.013209221 0.009712328 -0.00046869385 -0.009707156 -0.0025559883 0.013625724 -0.0028777348 -0.020711124
-0.03445747 8.798118e-05 -0.050775427 -0.006933695 -0.010183767 0.017351957 0.0006843528 -0.0032429618
0.0135660395 0.0052773957 -0.011437713 -0.013323031 0.018686013 0.0071262326 -0.014008183 0.012699087
0.0025155612 0.024703417 -0.004568247 -0.011925861 -0.014402712 0.0015628625 0.02808363 0.010344467
0.007804826 0.002271217 -0.007064402 -0.000895187 0.01286916 -0.00948641 0.02835645 0.016632378
0.01819889 0.007834168 0.005538519 0.015487196 -0.0033321038 -0.03071278 -0.037406467 0.008477794
0.0071243253 -0.0059750034 0.014586675 0.0044077635 0.027129902 0.01493506 -0.0032880367 0.017032357
0.009240906 0.011726873 0.0032984773 0.012835334 -0.008998666 -0.0064685955 -0.0073334333 0.002665944
0.009844 0.0067232987 0.0045935246 0.0025605746 0.01648156 0.013924592 -0.0016377189 -0.011375956
-0.007647659 -0.012791803 0.012918642 -0.0025463318 -0.0071135596 -0.01249423 -0.01061 -0.0097814305
0.03112119 -0.013713131 0.009117426 0.015736239 -0.0025636067 -0.053745538 0.013612384 -0.02181442
-0.007905698 -0.005918266 0.006306648 0.0020049429 -0.012338709 0.023214908 0.009050553 -0.04147589
-0.016528772 0.015073505 0.026287185 -0.0051467223 0.022555245 0.022695478 0.019492328 0.01499603
-0.014856917 0.015038268 0.008843446 -0.015564868 -0.03579893 0.017903907 -0.012489775 0.0065634786
0.010583601 0.0041667074 -0.010245881 0.006328802 0.0014411538 0.0016595122 0.017282676 0.0017208809
-0.028946634 0.009676782 0.015348951 -0.0073940726 0.011558757 0.024513446 0.0023623244 0.005819971
0.026320659 0.007867143 0.003913638 -0.0015621964 0.023107905 0.006715503 0.0025650875 0.022409791
-3.7959802e-05 0.017710749 0.0012540784 -0.0039912295 -0.011606203 0.011745513 0.0031785034 0.010168933
0.012598672 -0.024780296 -0.0074696057 0.0125235515 0.0009272526 -0.018440329 0.00042821595 -0.015094788
-0.012154808 0.0014689087 -0.004210717 0.0021486639 0.014927182 -0.0045932787 -0.0079818815 0.060726833
-0.0102842925 0.00763334 0.0068237837 0.020914897 0.013329876 -0.0040250267 0.0034610173 0.008648701
-0.018631542 0.0032903298 0.002893399 -0.0037120238 -0.005561612 0.016467748 0.023542175 -0.018703025
00000000: e4e5 0d3c b2bc f43a d1c1 48bb dd9f 10bb
00000010: de65 27bc fd0b 853c 8918 fb3b d7e7 553b
00000020: fd01 17bd 6977 e33c d6e2 2fbb 346b 6fbb
00000030: c791 8b3a 2399 833a 2308 67bb 2fbc fd3c
00000040: 2b6a 863c cdbe f93b 9115 d83c 5522 b83c
00000050: d15f 9b3b 421a 0fbc b66b f63b 6659 1f3a
00000060: c222 283b 85f3 b3bb f88b 2cbc aa97 6b3b
00000070: eda6 243c 8f44 3c3c dd7e 9bbc 4923 253c
00000080: 0775 2a3c 6d11 453d 63bf d7b9 e3d0 973a
00000090: 6663 d53b 7b1a 8b3c 7df0 333c ad9d 0c3c
000000a0: 8034 1c3c fe18 6d3c ae5f 0d3c 154e f4bb
000000b0: d430 83bd 815c 6c3c 5229 bdbb 8184 bebb
000000c0: 5b5f 9cbc cd2f 1ebb 7069 08bc 0e70 883c
000000d0: 6781 ef3b 8aa6 133c aea8 9a3b 6f54 5abb
000000e0: e970 ebba 71c3 0dba 36b8 bcbb 9d40 683c
000000f0: f809 c63c 8158 553c 4c25 9b3c 1dda fd3b
00000100: d0ec 32bc 77a1 91bb 7b0f 4e3d f092 263d
00000110: c655 d8b9 8843 a63c 4da0 b13b 2546 173c
00000120: 174f 81bc 36c2 21bc e7b4 073c 2576 9dbb
00000130: c5bb 00bc 0de3 a839 a209 1f3c 3766 e2bb
00000140: 7d6b 583c 7520 1f3c 06bb f5b9 c30a 1fbc
00000150: 5e82 27bb 6e3e 5f3c 6198 3cbb 60aa a9bc
00000160: 4723 0dbd 8982 b838 e5f9 4fbd 0d34 e3bb
00000170: d1d9 26bc b125 8e3c 2466 333a df87 54bb
00000180: 1844 5e3c 01ee ac3b 3f65 3bbc d848 5abc
00000190: 6913 993c 2c83 e93b 9482 65bc d50f 503c
000001a0: 1ddc 243b d25e ca3c 3cb1 95bb b064 43bc
000001b0: 5af9 6bbc f7d8 cc3a a40f e63c d77b 293c
000001c0: a0bf ff3b b3d8 143b 807c e7bb fcaa 6aba
000001d0: 2bd9 523c e36c 1bbc c94b e83c a040 883c
000001e0: d715 953c e25a 003c 777c b53b 02be 7d3c
000001f0: 6d5f 5abb 5e99 fbbc 8637 19bd 72e6 0a3c
00000200: 2c73 e93b f6c9 c3bb f3fc 6e3c 006f 903b
00000210: 873f de3c 2fb2 743c 1a7c 57bb 7187 8b3c
00000220: 2b67 173c 1222 403c 442b 583b 4b4b 523c
00000230: 246f 13bc 83f6 d3bb 4c4d f0bb 1eb7 2e3b
00000240: bb48 213c 1e4f dc3b 4785 963b 50cf 273b
00000250: 5604 873c f923 643c baa8 d6ba 3862 3abc
00000260: 3799 fabb b694 51bc b6a8 533c 5ce0 26bb
00000270: dd18 e9bb 99b4 4cbc 91d5 2dbc 4b42 20bc
00000280: def1 fe3c 0aad 60bc 4261 153c 49e9 803c
00000290: 2f02 28bb 4824 5cbd 7a06 5f3c 28b4 b2bc
000002a0: e786 01bc 03ee c1bb ffa7 ce3b 5c65 033b
000002b0: 4c28 4abc 312d be3c c548 143c 9fe2 29bd
000002c0: 5967 87bc ddf6 763c 3958 d73c d6a5 a8bb
000002d0: c7c5 b83c deeb b93c 60ae 9f3c e9b1 753c
000002e0: 6d6a 73bc 1163 763c 1ae4 103c ca03 7fbc
000002f0: e6a1 12bd 37ab 923c eaa1 4cbc 7312 d73b
00000300: d766 2d3c e088 883b 57de 27bc d761 cf3b
00000310: 19e5 bc3a fd83 d93a 6694 8d3c 2e8f e13a
00000320: 7e21 edbc 5e8b 1e3c 2b7a 7b3c fa49 f2bb
00000330: f160 3d3c 6cd0 c83c 3ad1 1a3b 75b5 be3b
00000340: 6c9e d73c 30e5 003c fa3d 803b 9dc2 ccba
00000350: ca4c bd3c b90d dc3b 071b 283b bd94 b73c
00000360: 0737 1fb8 2216 913c e35f a43a dcc8 82bb
00000370: f227 3ebc 4170 403c 704e 503b 999b 263c
00000380: a96a 4e3c 0c00 cbbc 98c3 f4bb 952f 4d3c
00000390: de12 733a 2c10 97bc 2c82 e039 2150 77bc
000003a0: f624 47bc 6688 c03a 0efa 89bb 99d0 0c3b
000003b0: 2491 743c 3783 96bb 70c6 02bc b3bc 783d
000003c0: 737f 28bc 1921 fa3b 0c9a df3b b855 ab3c
000003d0: 8d65 5a3c 5fe4 83bb 3cd2 623b 48b3 0d3c
000003e0: 2da1 98bc 93a2 573b 2e9f 3d3b 6d45 73bb
000003f0: 2f3e b6bb 5fe7 863c 85db c03c 1637 99bc

network_body._body_endoder.seq_layers.2.weight f4 [256, 256]
-0.07734144 0.11073444 0.026031988 0.09483219 0.05296552 0.03900749 -0.011478063 -0.008112344
-0.10775215 -0.09544997 -0.03812553 -0.09177207 -0.027365655 -0.10710293 -0.06756753 -0.122126155
-0.085417196 0.072061285 0.10441335 -0.092682265 -0.16912036 -0.052264158 0.0385581 0.11094267
-0.043114763 -0.029869638 0.08994596 -0.066721775 -0.13808782 0.1965299 -0.16381292 -0.04619044
0.049074493 0.06554862 0.1806264 0.1244994 -0.060658086 0.17623176 -0.048170853 0.047352746
0.058447972 0.0036675453 -0.043325588 0.0025262837 -0.06997209 0.10488462 -0.0605361 -0.23809037
0.05319571 -0.022552393 -0.03465469 0.07068791 0.049430374 0.04385043 0.022893138 -0.029506873
-0.03780648 -0.07624106 -0.026173124 -0.08725436 -0.20116217 -0.078109525 0.0049866047 0.008285079
0.12937638 -0.051568884 -0.052437805 0.11800234 0.05457866 -0.033650056 0.021125918 -0.04778343
0.042921342 0.074532144 -0.030932056 0.09216238 0.060242333 0.027837664 0.038236752 0.098656215
0.0011860179 0.098066956 0.045127396 0.1055984 -0.07778625 0.1150171 -0.02902033 -0.09664233
-0.05379786 -0.0016129742 0.08685057 -0.038543742 0.06141235 -0.1666625 -0.015902579 0.09448477
0.09650937 0.0088209575 0.013463231 -0.08605403 0.10703773 0.018117199 0.06814591 0.017286994
-0.06699328 -0.06953383 -0.003598606 -0.02865802 -0.11021634 -0.06055846 -0.11644208 0.0025593534
0.019073032 0.058217898 0.08772308 -0.009976456 -0.04166771 -0.020988405 0.0286014 0.16098517
0.020685788 -0.05094425 0.10660669 -0.05105591 -0.08699429 0.040054332 0.062427487 0.028118758
-0.029231671 0.018151212 0.01721877 -0.13602282 -0.033327483 0.08599948 0.04704777 0.0058393446
0.09367032 0.00094280735 -0.017140746 -0.017975107 0.06335371 0.021712065 0.026304238 0.04255157
0.014691681 0.08856809 -0.06938801 0.011135005 -0.09929714 -0.065239616 -0.167056 -0.078056306
-0.11201692 -0.00675372 0.010848723 -0.05121638 -0.011542504 0.033613387 0.07321169 -0.011582312
0.009341879 -0.027891655 -0.09179476 0.01073249 0.11077623 0.17886955 -0.051180374 0.022102872
0.009068868 0.06952864 0.017321557 -0.082010075 -0.01480483 -0.13641614 0.06275663 0.007689975
-0.05008197 0.070360504 -0.013939788 0.024612267 -0.019128244 0.064553015 0.18119271 0.0041920077
-0.033288393 0.069724455 -0.008416661 -0.05385018 -0.12670937 -0.058999036 0.06769796 0.02573856
0.060059678 0.07629599 0.16470788 0.090332925 0.13440014 2.251797e-05 -0.03257064 -0.14084637
0.17609511 0.08934945 0.014722846 -0.026738679 0.02646063 -0.022164248 0.039517503 -0.015973382
-0.110799804 -0.043906823 0.096974656 -0.17235225 0.04332391 0.07907566 -0.00974185 0.0757384
0.07834404 0.024837464 0.027057854 0.16554707 -0.0086114025 0.014464613 0.06833151 0.0021029625
-0.04993928 0.087675765 -0.04261121 -0.14299478 -0.15641001 0.09325644 -0.04833819 -0.00095242454
-0.0374682 -0.0050700195 0.09152936 -0.12034665 -0.108438104 0.037103646 0.043750323 -0.045423385
-0.07523329 0.0030666252 0.006839105 -0.0010746098 0.07355217 -0.1962516 -0.044547286 0.037321452
-0.23718764 0.035855696 -0.018315572 0.032849982 0.0056548254 -0.007614867 -0.041645978 -0.12783208
00000000: 3065 9ebd bdc8 e23d 0941 d53c 6137 c23d
00000010: 60f2 583d 51c6 1f3d 7c0e 3cbc a3e9 04bc
00000020: 29ad dcbd 467b c3bd 8429 1cbd fff2 bbbd
00000030: f02d e0bc c858 dbbd d860 8abd 471d fabd
00000040: 36ef aebd de94 933d abd6 d53d 33d0 bdbd
00000050: e32d 2dbe f112 56bd 19ef 1d3d e935 e33d
00000060: 1b99 30bd 2cb1 f4bc 9635 b83d 6da5 88bd
00000070: e566 0dbe 223f 493e 93be 27be 3032 3dbd
00000080: 5602 493d 5b3e 863d 21f6 383e 8bf9 fe3d
00000090: 9d74 78bd 1976 343e cd4e 45bd f4f4 413d
000000a0: 2467 6f3d 335b 703b 2c76 31bd 0290 253b
000000b0: 874d 8fbd bfcd d63d b4f4 77bd f6cd 73be
000000c0: bfe3 593d ccbf b8bc 14f2 0dbd d3c4 903d
000000d0: 8177 4a3d 829c 333d 648a bb3c 66b8 f1bc
000000e0: f8da 1abd 4624 9cbd 0569 d6bc 6ab2 b2bd
000000f0: 75fd 4dbe e3f7 9fbd ac66 a33b 24be 073c
00000100: 3e7b 043e e539 53bd 06c9 56bd 36ab f13d
00000110: df8d 5f3d a4d4 09bd 4310 ad3c 8fb8 43bd
00000120: 4ace 2f3d 4fa4 983d 3965 fdbc a1bf bc3d
00000130: aac0 763d d00b e43c 249e 1c3d 450c ca3d
00000140: 2874 9b3a 54d7 c83d 81d7 383d f943 d83d
00000150: 664e 9fbd 168e eb3d 0bbc edbc 6aec c5bd
00000160: 255b 5cbd 6f6a d3ba b6de b13d 0be0 1dbd
00000170: 848b 7b3d 93a9 2abe 2046 82bc 3b81 c13d
00000180: b4a6 c53d c785 103c e294 5c3c 183d b0bd
00000190: 9936 db3d 856a 943c 1590 8b3d 749d 8d3c
000001a0: c633 89bd c167 8ebd 97d6 6bbb 39c4 eabc
000001b0: 1bb9 e1bd 260c 78bd 2f79 eebd d3ba 273b
000001c0: 0c3f 9c3c e475 6e3d 28a8 b33d 4a74 23bc
000001d0: c3ab 2abd e0ef abbc 7c4d ea3c 4cd9 243e
000001e0: 3e75 a93c ebaa 50bd 9c54 da3d 0020 51bd
000001f0: 102a b2bd 0310 243d f7b3 7f3d 4f59 e63c
00000200: 4277 efbc dab1 943c 610e 8d3c 9149 0bbe
00000210: 6682 08bd 7f20 b03d 2ab5 403d f957 bf3b
00000220: 3ad6 bf3d bb26 773a c06a 8cbc 8840 93bc
00000230: 97bf 813d 80dd b13c fc7b d73c 8e4a 2e3d
00000240: 60b5 703c 3063 b53d 4d1b 8ebd 996f 363c
00000250: 4d5c cbbd 599c 85bd ba10 2bbe fcdb 9fbd
00000260: 2069 e5bd 4f4e ddbb d8be 313c 44c8 51bd
00000270: c51c 3dbc 31ae 093d 03f0 953d bdc3 3dbc
00000280: ae0e 193c 0a7d e4bc e4fe bbbd 53d7 2f3c
00000290: a6de e23d 9429 373e 83a2 51bd 1511 b53c
000002a0: 9795 143c 0865 8e3d f0e5 8d3c e6f4 a7bd
000002b0: f58f 72bc acb0 0bbe 8c86 803d 30fc fb3b
000002c0: c022 4dbd 2b19 903d b563 64bc aa9f c93c
000002d0: d6b2 9cbc 5f34 843d 958a 393e 1c5d 893b
000002e0: 6959 08bd b2cb 8e3d 09e6 09bc 0292 5cbd
000002f0: 1ac0 01be f9a8 71bd 3aa5 8a3d acd9 d23c
00000300: 2301 763d 1241 9c3d 2fa9 283e 7800 b93d
00000310: 31a0 093e f9e4 bc37 cb68 05bd 083a 10be
00000320: 4752 343e d8fc b63d 1838 713c 130b dbbc
00000330: f7c3 d83c cc91 b5bc 1bdd 213d 9cda 82bc
00000340: 02eb e2bd a4d7 33bd a69a c63d 1c7d 30be
00000350: 6a74 313d 6bf2 a13d 489c 1fbc bc1c 9b3d
00000360: d772 a03d f077 cb3c 6fa8 dd3c 2c85 293e
00000370: d716 0dbc fcfc 6c3c 64f1 8b3d dbd1 093b
00000380: 218d 4cbd 5a8f b33d 1889 2ebd 396d 12be
00000390: f229 20be 3bfd be3d 44fe 45bd 21ac 79ba
000003a0: 4178 19bd 6822 a6bb bf73 bb3d 4e78 f6bd
000003b0: cc14 debd fef9 173d 8a33 333d df0d 3abd
000003c0: e913 9abd 6ff9 483b 921a e03b ecd9 8cba
000003d0: 85a2 963d 2ef6 48be 3777 36bd 61de 183d
000003e0: 51e1 72be 6cdd 123d 8a0a 96bc b48d 063d
000003f0: 1d4c b93b 2286 f9bb f994 2abd 6ae6 02be
